models/05_TinyVGG_lr_0.001_bz_32_hdu_10_eps_5___time_200.86836670000048.pth (torch, 37718 bytes, 10 tensors)

conv_block_1.0.weight f4 [10, 3, 3, 3]
-0.043350548 0.14968093 0.07293351 0.16484503 -0.17937653 0.09239457 -0.028452411 0.186182
0.0036941513 -0.16157942 -0.0013452711 0.18828954 -0.11468206 -0.04969131 -0.13242337 -0.046944488
-0.022375556 0.1580913 0.053668346 -0.08319607 -0.04894405 -0.09376847 0.015416471 0.072936155
-0.13442963 0.09855552 -0.117219985 -0.05912769 0.10328496 0.037579913 -0.03968617 0.035459604
0.024440141 -0.18610053 -0.009219522 0.07390465 0.16816328 0.046798494 -0.1014559 -0.13146375
-0.012444226 0.043450695 0.1432475 0.13631175 0.041545484 -0.17666383 -0.109990224 -0.18944742
-0.087935925 0.17163688 -0.07670468 -0.11601026 0.122307435 -0.06675166 0.18468525 0.110079326
-0.0813184 0.020978142 -0.05655699 0.06645502 0.051307667 0.059030224 0.16728953 -0.16643259
0.0138932755 0.10520141 0.18456268 -0.0651613 -0.049430825 0.10267884 0.03051253 -0.15840143
-0.09663843 -0.0789499 -0.04019848 0.013038981 -0.124644 -0.09517796 0.12514678 0.17493168
-0.04620148 0.027725475 -0.18893671 -0.022980703 -0.1590817 0.017755698 -0.1140678 -0.08377872
-0.18082508 0.11170912 -0.09962344 0.09117888 0.08769516 0.030838218 0.09403151 -0.07570838
-0.086395994 0.17154229 -0.07530866 -0.10850825 0.09334283 0.16141653 0.15771183 -0.07776923
-0.018077122 0.047928743 -0.045336936 -0.0917147 0.078521535 0.10940678 0.13277636 0.068949334
0.07841355 0.10368986 -0.022963734 0.14550148 -0.0034779408 0.16754876 0.06284643 -0.09554423
-0.13906313 0.1017999 0.032602474 0.08828046 0.078506544 0.06272488 0.17093553 -0.07715053
-0.13990775 -0.06782138 -0.07678024 0.004408038 0.11203464 -0.016263023 0.18032649 -0.13839564
0.13681118 0.20281424 0.09322092 -0.14903249 -0.16150716 0.1502223 0.051765267 0.029826192
-0.11175544 -0.07941604 0.12220595 -0.047165904 0.07833135 0.15034358 0.06448024 -0.121877044
-0.0481951 -0.008004259 0.112760745 0.109756246 0.16971825 0.15737222 0.14932892 -0.00035417825
-0.19090231 0.026318895 -0.12106049 -0.045320135 0.008071454 -0.13771665 -0.16542566 0.025429964
-0.113970056 -0.15441865 0.054667234 0.054132216 0.013390239 -0.109704934 0.09381493 -0.17585196
0.0851872 0.05051552 0.07973766 0.12434693 0.122098826 0.016273757 0.06466658 0.010480734
-0.10690223 -0.17641248 0.17858757 -0.13979407 -0.06845615 -0.055711657 0.16192733 -0.1389087
0.120624386 -0.12358814 0.19247009 -0.024825826 0.17787501 0.071362115 0.16307019 0.15792005
0.11052255 -0.12589256 -0.053994574 -0.16008306 0.088536486 0.03535995 0.062033936 0.021895895
0.039567113 0.021388248 0.0964241 -0.040769428 -0.17574647 0.024934048 0.04492649 -0.04004306
-0.07799515 -0.17235154 -0.08604849 -0.03156754 0.03712322 0.16104579 -0.1783557 -0.08605992
-0.10092333 -0.0038658716 0.11538891 -0.17226775 0.07450479 -0.056569397 -0.10425858 -0.07901974
0.1489629 0.11669249 0.14233996 -0.108254276 -0.07844937 0.030055974 0.17118499 0.09996816
0.09925779 -0.023894856 0.08888009 0.029193848 0.08875314 -0.1425334 -0.087305635 -0.19071044
-0.11660619 -0.16958255 0.046250276 -0.09555046 0.058823436 0.16754481 -0.119560316 0.031054948
00000000: 5890 31bd f545 193e 2a5e 953d 23cd 283e
00000010: 7bae 37be 5d39 bd3d 0815 e9bc 7fa6 3e3e
00000020: 9319 723b 1375 25be cf53 b0ba f9ce 403e
00000030: 6ede eabd 1d89 4bbd fe99 07be dd48 40bd
00000040: f14c b7bc b0e2 213e 57d3 5b3d b362 aabd
00000050: 8e79 48bd af09 c0bd 5e95 7c3c 8d5f 953d
00000060: eca7 09be 7ad7 c93d 0811 f0bd e02f 72bd
00000070: 1187 d33d 65ed 193d f78d 22bd 173e 113d
00000080: b136 c83c 2391 3ebe 7a0d 17bc 525b 973d
00000090: ff32 2c3e c7af 3f3d 1cc8 cfbd 6f9e 06be
000000a0: dee2 4bbc 5bf9 313d 79af 123e 4f95 0b3e
000000b0: 992b 2a3d 5de7 34be 8e42 e1bd 81fe 41be
000000c0: c017 b4bd 94c1 2f3e 5817 9dbd ca96 edbd
000000d0: 527c fa3d 18b5 88bd 211e 3d3e 4571 e13d
000000e0: 438a a6bd 5ada ab3c 4da8 67bd 9219 883d
000000f0: fd27 523d adc9 713d f24d 2b3e 4e6d 2abe
00000100: 9fa0 633c d673 d73d 00fe 3c3e 4a73 85bd
00000110: fa77 4abd 4949 d23d 6af5 f93c fc33 22be
00000120: 5fea c5bd 7cb0 a1bd 29a7 24bd 73a1 553c
00000130: 5a45 ffbd aaec c2bd 7a26 003e 4a21 333e
00000140: c33d 3dbd 8920 e33c a078 41be 0742 bcbc
00000150: 50e6 22be 6674 913c 619c e9bd 2d94 abbd
00000160: 362a 39be c0c7 e43d 6007 ccbd febb ba3d
00000170: 8599 b33d 6ea0 fc3c 9893 c03d ff0c 9bbd
00000180: 62f0 b0bd c8a8 2f3e 6d3b 9abd 9339 debd
00000190: 872a bf3d 604a 253e 367f 213e 7945 9fbd
000001a0: 7916 94bc ee50 443d 39b3 39bd ebd4 bbbd
000001b0: e6cf a03d a910 e03d 87f6 073e 4f35 8d3d
000001c0: 4997 a03d 595b d43d 711e bcbc 57fe 143e
000001d0: 2aee 63bb e791 2b3e a1b5 803d b1ac c3bd
000001e0: 9166 0ebe 777c d03d 2c8a 053d 63cc b43d
000001f0: 0ac8 a03d e775 803d b909 2f3e 1901 9ebd
00000200: fa43 0fbe f0e5 8abd f53e 9dbd 4e71 903b
00000210: 6b72 e53d 083a 85bc 82a7 383e 96b7 0dbe
00000220: 3b18 0c3e 89ae 4f3e 9cea be3d f99b 18be
00000230: 2262 25be e0d3 193e d107 543d 0f56 f43c
00000240: 09e0 e4bd e0a4 a2bd 1d47 fa3d 0931 41bd
00000250: 306c a03d abf3 193e 370e 843d ac9a f9bd
00000260: 3a68 45bd 4c24 03bc 1bef e63d e2c7 e03d
00000270: 9fca 2d3e 2f26 213e aee9 183e 00b1 b9b9
00000280: e57b 43be b99a d73c 90ee f7bd 9ba1 39bd
00000290: 223e 043c 9805 0dbe 5865 29be 8052 d03c
000002a0: 2269 e9bd ec1f 1ebe c0ea 5f3d beb9 5d3d
000002b0: bc62 5b3c fbac e0bd 0b22 c03d 8912 34be
000002c0: a076 ae3d 5de9 4e3d 804d a33d 9aa9 fe3d
000002d0: f30e fa3d 8b50 853c e96f 843d 62b7 2b3c
000002e0: 8eef dabd 79a5 34be a9df 363e 2d26 0fbe
000002f0: bd32 8cbd e831 64bd 47d0 253e 153e 0ebe
00000300: eb09 f73d c71b fdbd e116 453e 885f cbbc
00000310: de24 363e 4d26 923d dffb 263e cbb5 213e
00000320: a659 e23d fbe9 00be 6a29 5dbd d0ec 23be
00000330: 9e52 b53d 98d5 103d 4c17 7e3d 055f b33c
00000340: 2011 223d 6836 af3c 007a c53d d8fd 26bd
00000350: e2f6 33be 7d42 cc3c d704 383d 3104 24bd
00000360: ecbb 9fbd ec7c 30be 313a b0bd f74c 01bd
00000370: 840e 183d 30e9 243e e0a2 36be 2f40 b0bd
00000380: e4b0 cebd 905a 7dbb 0551 ec3d f566 30be
00000390: f895 983d 50b5 67bd 8685 d5bd 1ad5 a1bd
000003a0: bb89 183e 79fc ee3d 91c1 113e 6bb4 ddbd
000003b0: 10aa a0bd f237 f63c 1e4b 2f3e 1bbc cc3d
000003c0: ab47 cb3d 25bf c3bc c406 b63d f027 ef3c
000003d0: 35c4 b53d 47f4 11be 4ccd b2bd 9949 43be
000003e0: 3acf eebd 0ca7 2dbe ee70 3d3d f6af c3bd
000003f0: d8f0 703d de90 2b3e 0adc f4bd f266 fe3c

conv_block_1.0.bias f4 [10]
-0.09453665 -0.09357513 -0.15100099 0.07389523 -0.14167246 -0.05050491 0.12736851 -0.07646014
0.08121813 -0.16790107
00000000: 6e9c c1bd 51a4 bfbd 01a0 1abe 6256 973d
00000010: 9612 11be 3dde 4ebd e46c 023e 2297 9cbd
00000020: b155 a63d 42ee 2bbe

conv_block_1.2.weight f4 [10, 10, 3, 3]
0.029092291 -0.0020941328 0.05040039 0.06321877 0.009220875 -0.016074914 0.065505184 0.048410486
-0.04937425 -0.06593462 -0.039235406 0.023604404 0.008332433 0.05876762 -0.10764629 0.040428948
0.06886581 -0.028173339 -0.0049893707 -0.038932536 -0.10464486 0.09964454 -0.05734525 0.04181894
0.026161946 -0.04916704 -0.058258343 -0.06779598 0.048169807 -0.08915022 0.016535942 -0.0878904
-0.046944354 -0.04337131 0.050042853 -0.019320663 0.038537707 -0.038425557 -0.07036123 -0.04136096
0.08813667 -0.07978375 0.09826704 0.10353538 -0.03819163 -0.008614695 -0.04318588 0.034932964
0.023621725 0.10528205 0.051066075 0.05643086 0.05628138 0.0032391406 -0.03263491 -0.090310484
-0.019977843 -0.035706785 -0.024225522 -0.0693651 0.08249685 -0.0096875 -0.052296646 -0.09062561
0.08165747 0.071000166 0.096888855 0.054671317 0.06245289 0.085595794 -0.009969946 -0.095532455
-0.027048456 0.02837659 -0.072652124 0.09897194 -0.08643261 -0.076376535 0.01231957 0.037235785
-0.005456276 -0.013091222 -0.09450825 0.10334749 0.01911123 -0.019584611 0.04849087 -0.07311606
0.026782166 -0.028926266 -0.02616389 0.048866168 -0.029153192 0.064510636 0.064463936 0.08826393
0.026083274 0.06535293 0.08916237 -0.0699062 0.09091681 0.047689293 0.0705629 0.06810904
-0.011670282 0.0019529549 -0.071054794 -0.04757537 -0.02504742 -0.0890615 0.09344278 -0.00921619
0.009060984 0.09492389 0.02196128 0.11865579 0.0962595 -0.07972963 0.020611098 -0.08594136
0.109117635 -0.0056690974 -0.02442172 -0.08188636 0.038081042 -0.05024972 0.042529266 0.046706617
0.06619978 -0.03318541 0.05827695 -0.07891723 0.058496773 0.06927635 0.059950363 0.018168753
-0.045249585 0.05901769 0.010327922 0.047570102 -0.087076254 -0.084133394 -0.012684021 0.01552919
-0.06783 -0.053799275 -0.074002296 -0.0987069 -0.07395208 0.08213556 0.087446816 0.009414287
0.07994414 -0.03021679 -0.009715808 0.078158416 0.030554745 0.02305283 -0.0033904696 0.0015664911
0.03813226 0.08748217 -0.10052035 0.09840617 0.06302574 0.0925461 -0.02565898 0.010967422
-0.0238285 0.0051781777 -0.035572495 -0.061916832 0.027028868 -0.00777369 0.041368447 -0.09335109
-0.0007026454 0.09417459 0.055399388 -0.06478745 -0.0017351354 -0.002698045 0.11057051 -0.088248566
-0.04287956 -0.0803356 0.10509193 -0.07243073 -0.015655823 0.011034451 -0.045774065 0.05326542
-0.07034651 -0.00629311 0.008973537 0.08013336 0.059921898 -0.057671968 0.009041897 0.040581148
-0.07203224 0.067644335 -0.08388726 0.035342 0.04981942 0.09619958 0.028345473 -0.08659369
-0.10266685 0.032812852 -0.037928227 0.07253552 -0.10734567 -0.027467169 -0.046368256 -0.0872436
0.04883167 -0.011605953 -0.09554689 0.09369386 0.069719315 0.030666452 0.045391146 0.100056574
-0.0015898417 0.034269467 0.030170986 0.053330958 -0.022869783 0.011055751 0.03274346 0.0137394965
0.09764258 -0.030336747 -0.060174983 -0.030452438 -0.039047405 0.045135926 0.06968009 0.03969417
0.0678771 0.013727054 -0.017835971 0.07721235 -0.04498163 0.06430603 0.087346286 -0.09989872
0.07060738 0.06724386 0.07714982 0.042026132 -0.020030584 -0.03093605 -0.048822317 -0.05816017
00000000: f552 ee3c b83d 09bb a470 4e3d d878 813d
00000010: 2713 173c 8aaf 83bc 9527 863d 134a 463d
00000020: a73c 4abd bb08 87bd 4eb5 20bd 065e c13c
00000030: c284 083c 51b6 703d a875 dcbd d398 253d
00000040: 8509 8d3d c6cb e6bc e07d a3bb b977 1fbd
00000050: 0b50 d6bd 7012 cc3d dae2 6abd 564a 2b3d
00000060: 9451 d63c 6163 49bd 4da0 6ebd 9ed8 8abd
00000070: b44d 453d 6494 b6bd 6276 873c e2ff b3bd
00000080: b948 40bd 1da6 31bd bcf9 4c3d 5e46 9ebc
00000090: b7d9 1d3d 1e64 1dbd 8c19 90bd 1c6a 29bd
000000a0: 0081 b43d aa65 a3bd 3b40 c93d 5b0a d43d
000000b0: d46e 1cbd a624 0dbc ade3 30bd de15 0f3d
000000c0: 5982 c13c 1e9e d73d a92a 513d 0c24 673d
000000d0: 4e87 663d c347 543b 2fac 05bd b4f4 b8bd
000000e0: 93a8 a3bc 4741 12bd 9a74 c6bc 4a0f 8ebd
000000f0: 1cf4 a83d 52b8 1ebc 0235 56bd eb99 b9bd
00000100: 083c a73d 8968 913d aa6d c63d 08ef 5f3d
00000110: 9ace 7f3d d94c af3d fc58 23bc 85a6 c3bd
00000120: b994 ddbc 0676 e83c a3ca 94bd cdb1 ca3d
00000130: 9503 b1bd 4d6b 9cbd 06d8 493c 8d84 183d
00000140: 8fca b2bb 917c 56bc 8b8d c1bd d9a7 d33d
00000150: 278f 9c3c e86f a0bc 5d9e 463d dfbd 95bd
00000160: 4666 db3c c7f6 ecbc a755 d6bc e427 483d
00000170: add2 eebc 271e 843d ab05 843d b8c3 b43d
00000180: 97ac d53c c2d7 853d c39a b63d fb2a 8fbd
00000190: 9832 ba3d d955 433d 4883 903d c17c 8b3d
000001a0: b634 3fbc 4bfa ff3a 2d85 91bd 64de 42bd
000001b0: 3f30 cdbc e065 b6bd ee5e bf3d 81ff 16bc
000001c0: 8574 143c 7567 c23d 24e8 b33c cf01 f33d
000001d0: b323 c53d 4a49 a3bd 9bd8 a83c 0602 b0bd
000001e0: 1179 df3d d6c3 b9bb 0f10 c8bc 09b4 a7bd
000001f0: defa 1b3d a7d2 4dbd 2b33 2e3d 704f 3f3d
00000200: c093 873d 6ded 07bd d0b3 6e3d 5b9f a1bd
00000210: 509a 6f3d c2e0 8d3d 838e 753d a3d6 943c
00000220: a157 39bd 89bc 713d 7236 293c ded8 423d
00000230: 0955 b2bd 214e acbd a4d0 4fbc 256e 7e3c
00000240: 74ea 8abd a15c 5cbd 848e 97bd d826 cabd
00000250: 3074 97bd b036 a83d 5117 b33d 623e 1a3c
00000260: c1b9 a33d 3489 f7bc 0d2f 1fbc 8511 a03d
00000270: f24d fa3c 4ad9 bc3c a432 5ebb b852 cd3a
00000280: 9330 1c3d da29 b33d 9ddd cdbd 2d89 c93d
00000290: a413 813d cf88 bd3d c832 d2bc b4b0 333c
000002a0: fd33 c3bc b4ad a93b 77b4 11bd 819c 7dbd
000002b0: a56b dd3c 70ba febb f671 293d db2e bfbd
000002c0: bc31 38ba 9cde c03d 78ea 623d 48af 84bd
000002d0: 7c6d e3ba afd1 30bb cb72 e23d aabb b4bd
000002e0: 7aa2 2fbd fe86 a4bd 703a d73d 9056 94bd
000002f0: a440 80bc d8c9 343c 967d 3bbd d72c 5a3d
00000300: d511 90bd 6f36 cebb be05 133c f61c a43d
00000310: aa70 753d 7139 6cbd 7724 143c 6b38 263d
00000320: a485 93bd 1d89 8a3d 15cd abbd c6c2 103d
00000330: 730f 4c3d 4904 c53d c434 e83c 0858 b1bd
00000340: ff42 d2bd c566 063d a15a 1bbd 818d 943d
00000350: 0cd8 dbbd d402 e1bc a4ec 3dbd c6ac b2bd
00000360: b803 483d e526 3ebc 16ae c3bd 91e2 bf3d
00000370: 00c9 8e3d 3638 fb3c 11ec 393d 76ea cc3d
00000380: 3c62 d0ba 245e 0c3d 2529 f73c 9071 5a3d
00000390: 6959 bbbc 2e23 353c 021e 063d a01b 613c
000003a0: d5f8 c73d c584 f8bc 0b7a 76bd 6477 f9bc
000003b0: 2cf0 1fbd 73e0 383d 6fb4 8e3d 5b96 223d
000003c0: 2603 8b3d 70e7 603c be1c 92bc 8221 9e3d
000003d0: a83e 38bd e1b2 833d 9ce2 b23d b397 ccbd
000003e0: 9a9a 903d 26b7 893d ba00 9e3d 9823 2c3d
000003f0: 2e17 a4bc 996d fdbc e9f9 47bd 5c39 6ebd

conv_block_1.2.bias f4 [10]
0.10786039 0.007320786 0.0585314 0.09561769 0.0024597822 0.08511592 -0.06666251 0.08358603
-0.01280009 -0.10470625
00000000: e8e5 dc3d 34e3 ef3b 9fbe 6f3d 35d3 c33d
00000010: 4c34 213b 4151 ae3d 5b86 88bd 272f ab3d
00000020: 78b7 51bc 3b70 d6bd

conv_block_2.0.weight f4 [10, 10, 3, 3]
-0.054531492 0.03481172 0.06987873 -0.07213272 -0.03012702 0.025517698 -0.05930473 0.020164542
-0.0873108 -0.0770942 -0.042116474 0.013340193 -0.07952995 0.028635789 -0.0026005984 0.027543528
0.08191885 -0.037493836 -0.0021026314 -0.017018324 0.09410997 -0.06319423 -0.07056242 0.025631713
0.05062146 0.048326295 0.049054164 0.07918558 0.09040993 0.09164486 -0.04430874 0.05854491
-0.09055013 -0.067374036 -0.03915971 -0.056007396 0.055545468 0.08514792 -0.094524674 -0.050966673
0.047000673 -0.09166371 -0.002096022 -0.011809462 -0.09746886 0.08968767 0.0861923 -0.019864067
-0.09775011 -0.053364173 -0.009346037 0.024980588 -0.08629576 0.0867013 -0.05416345 -0.05007574
-0.10207628 0.02254146 0.070640266 0.08733925 0.033273034 0.06676214 0.015635682 0.09143177
0.04541378 0.07801395 0.04310986 0.02217813 -0.000605352 0.033742297 0.03604754 -0.10414808
-0.100423075 0.09017966 -0.10415008 -0.061964724 -0.018351428 -0.05436951 0.09533862 -0.022630135
-0.053900696 -0.038219903 -0.0031183804 0.06972358 0.09066012 0.039412178 0.006385418 0.08207512
0.012693659 0.087216176 -0.026585804 -0.0757041 -0.021414895 0.035486173 -0.06601793 0.002739927
-0.014482808 0.07395328 -0.0717194 -0.060896277 -0.058089767 0.021473495 0.023901746 -0.07767262
-0.042017736 -0.009464956 -0.0052389167 -0.056898765 0.07102055 0.0027306376 -0.0816226 -0.04842673
0.06567148 0.029619975 -0.045497123 -0.03498503 0.0748022 0.10603615 -0.07415702 -0.031135185
-0.00072601775 -0.07200323 -0.064894095 -0.039793424 -0.027431095 0.06650412 -0.028589835 -0.07117239
0.11019406 0.08968862 -0.08721789 -0.057065908 0.039976627 0.057468932 -0.060938183 0.060868524
0.011723127 -0.01653966 -0.0141342655 0.10874355 -0.04351508 -0.06781497 0.07428992 -0.0047168317
-0.040940296 -0.015309886 0.051455352 -0.018825121 0.059352204 0.09631954 -0.110459425 -0.047780428
0.00050728675 0.10483752 -0.06982787 0.03288595 0.117086634 0.077519186 0.0955041 -0.0337342
0.05926885 0.0103113195 -0.03823019 0.040080186 0.007963407 -0.057276756 -0.031327363 0.05381416
-0.085878514 0.005828375 -0.09092794 0.0020982926 -0.07895233 0.057333894 0.050043825 -0.0153791
0.084904045 0.01277403 0.06237318 0.03917697 -0.08573046 -0.060723886 0.048698004 -0.10872205
0.035326492 0.020838225 -0.08739206 -0.026326058 0.065656014 0.08692583 -0.050052788 -0.019144055
-0.014665689 -0.05427781 0.022587575 -0.009603919 0.0875004 0.059181966 -0.020774039 0.08003451
-0.042004656 -0.018363653 0.026702812 0.07720686 0.0062676063 -0.09059391 0.029906698 0.047150563
0.06836985 -0.098199844 0.04069245 -0.0083535565 -0.019257113 -0.10331556 0.03690301 -0.053525776
-0.074022055 0.034019835 0.0883215 -0.05197136 0.040578045 -0.051726524 -0.001116051 -0.023146797
0.08779987 -0.059589457 -0.059894517 0.05132742 -0.0807865 -0.055344623 -0.090602875 -0.06819083
0.036172356 -0.02505092 0.07469415 -0.024907406 0.06276825 -0.015386585 -0.03524698 -0.043118134
-0.06990461 -0.097883396 -0.025979618 -0.048300743 0.05882207 0.07267386 0.10152183 0.01605095
0.005845015 -0.03584995 0.027802216 -0.040329807 0.016671604 0.09439978 0.055055227 -0.039578725
00000000: 6a5c 5fbd bc96 0e3d 941c 8f3d 52ba 93bd
00000010: f1cc f6bc 7e0a d13c 84e9 72bd 1c30 a53c
00000020: 01d0 b2bd 90e3 9dbd 5382 2cbd d390 5a3c
00000030: 99e0 a2bd 9a95 ea3c cd6e 2abb f7a2 e13c
00000040: 12c5 a73d 2393 19bd 4dcc 09bb 036a 8bbc
00000050: babc c03d fa6b 81bd 0883 90bd 99f9 d13c
00000060: 7358 4f3d cbf1 453d 05ed 483d 0d2c a23d
00000070: d728 b93d 4db0 bb3d 157d 35bd cacc 6f3d
00000080: 5972 b9bd 66fb 89bd ef65 20bd 0368 65bd
00000090: a583 633d 0862 ae3d 2796 c1bd 6ec2 50bd
000000a0: c783 403d 2fba bbbd 6a5d 09bb 797c 41bc
000000b0: c19d c7bd 2bae b73d 9785 b03d f8b9 a2bc
000000c0: 3631 c8bd 6494 5abd 1f20 19bc 17a4 cc3c
000000d0: d5bb b0bd 7490 b13d 7eda 5dbd 381c 4dbd
000000e0: 5e0d d1bd dea8 b83c d8ab 903d ecde b23d
000000f0: 4e49 083d 97ba 883d 6716 803c 9440 bb3d
00000100: cd03 3a3d c7c5 9f3d f793 303d e9ae b53c
00000110: 7cb0 1eba 5d35 0a3d 96a6 133d 974b d5bd
00000120: 9daa cdbd 1db0 b83d a34c d5bd b9ce 7dbd
00000130: bc55 96bc 90b2 5ebd e540 c33d d562 b9bc
00000140: fac6 5cbd 798c 1cbd be5d 4cbb 3ccb 8e3d
00000150: 03ac b93d aa6e 213d c53c d13b 0017 a83d
00000160: 11f9 4f3c 659e b23d 79ca d9bc c00a 9bbd
00000170: 4a6e afbc f359 113d 6934 87bd 5990 333b
00000180: 4d49 6dbc d174 973d 9fe1 92bd 606e 79bd
00000190: 89ef 6dbd 2fe9 af3c 98cd c33c d312 9fbd
000001a0: ca1a 2cbd e712 1bbc 38ab abbb ae0e 69bd
000001b0: 3973 913d 7ff4 323b c029 a7bd 1b5b 46bd
000001c0: c57e 863d 97a5 f23c 315b 3abd 764c 0fbd
000001d0: e531 993d 7b29 d93d a3df 97bd 370f ffbc
000001e0: 3a52 3eba 6e76 93bd 32e7 84bd 6efe 22bd
000001f0: 2db7 e0bc 5033 883d 3b35 eabc d4c2 91bd
00000200: 6cad e13d abae b73d 4b9f b2bd f1bd 69bd
00000210: 88be 233d 8b64 6b3d 519a 79bd 4651 793d
00000220: 5c12 403c 2e7e 87bc 6893 67bc f0b4 de3d
00000230: de3c 32bd 93e2 8abd 5025 983d a78f 9abb
00000240: 03b1 27bd 51d6 7abc d9c2 523d 2437 9abc
00000250: 4c1b 733d 2e43 c53d 8d38 e2bd 69b5 43bd
00000260: 70fb 043a 0eb5 d63d ea01 8fbd 6bb3 063d
00000270: 1ecb ef3d 61c2 9e3d a797 c33d df2c 0abd
00000280: e5c3 723d cff0 283c 4297 1cbd 1f2b 243d
00000290: f378 023c 089b 6abd 1f51 00bd 3d6c 5c3d
000002a0: 13e1 afbd f4fb be3b 6e38 babd 8283 093b
000002b0: c2b1 a1bd f2d6 6a3d c1fa 4c3d 9ff8 7bbc
000002c0: 2ce2 ad3d 2a4a 513c 057b 7f3d 0878 203d
000002d0: 7493 afbd 9cb9 78bd 8f77 473d aba9 debd
000002e0: 83b2 103d edb4 aa3c 9cfa b2bd bfa9 d7bc
000002f0: a976 863d 2b06 b23d 2704 4dbd fed3 9cbc
00000300: 5c48 70bc 6952 5ebd 9409 b93c c259 1dbc
00000310: 6933 b33d ca68 723d 512e aabc 22e9 a33d
00000320: 130d 2cbd 5f6f 96bc dbbf da3c a11e 9e3d
00000330: 7e60 cd3b 4d89 b9bd e4fe f43c f320 413d
00000340: 7e05 8c3d 001d c9bd 20ad 263d 5bdd 08bc
00000350: 18c1 9dbc 1c97 d3bd 9c27 173d d83d 5bbd
00000360: e098 97bd 6258 0b3d e7e1 b43d ecdf 54bd
00000370: 2a35 263d 31df 53bd 7548 92ba 5a9e bdbc
00000380: 6bd0 b33d 1314 74bd f453 75bd b33c 523d
00000390: 6473 a5bd 0bb1 62bd 008e b9bd a2a7 8bbd
000003a0: 7729 143d 9637 cdbc 3ff9 983d 9e0a ccbc
000003b0: a48c 803d 0418 7cbc 235f 10bd a49c 30bd
000003c0: 262a 8fbd 1777 c8bd 35d3 d4bc 00d7 45bd
000003d0: 69ef 703d 08d6 943d adea cf3d 487d 833c
000003e0: 8a87 bf3b 66d7 12bd 79c1 e33c de30 25bd
000003f0: e392 883c ac54 c13d 9781 613d 4d1d 22bd

conv_block_2.0.bias f4 [10]
-0.07053059 0.10422875 -0.070418954 0.08194899 -0.10535443 -0.011690416 0.014665759 0.007913148
-0.097701415 0.09609804
00000000: 5872 90bd e275 d53d d037 90bd dfd4 a73d
00000010: 10c4 d7bd 2989 3fbc a748 703c 26a6 013c
00000020: ae17 c8bd 0dcf c43d

conv_block_2.2.weight f4 [10, 10, 3, 3]
-0.08336614 0.09679627 0.0037466264 0.00031935674 -0.10037657 -0.0066163205 0.026524741 -0.082219765
0.09740543 0.057857737 0.011596683 0.048195373 -0.05303397 -0.032121684 -0.061122093 -0.02387851
-0.0357763 -0.0018549792 0.0015341694 0.09011645 0.100704 -0.05828103 0.06544743 -0.06504618
0.05952346 -0.0007869348 0.06528229 0.061021537 0.04262374 -0.000928289 0.05825558 -0.033172023
0.05163945 0.0728829 -0.08898043 0.07589419 -0.030844154 0.0459907 0.04081416 0.08782452
-0.06925871 -0.079853594 -0.048583664 -0.010003569 0.042557992 0.027508607 -0.010620095 -0.011030527
-0.037399027 -0.113498576 0.0040356684 0.059919283 0.008236971 0.0474481 0.05559146 -0.10804577
-0.013494003 0.039781146 -0.043760277 -0.07440581 0.054972034 -0.00069660915 0.035647828 0.02794796
-0.009667328 -0.025705438 0.03596019 -0.013591914 -0.10723693 -0.10435488 -0.1007783 0.049385358
0.07296527 -0.018785879 0.009755798 -0.04029321 0.0010069087 0.034157015 0.08293829 0.07976998
0.07285414 -0.0023430877 0.01474714 -0.11187169 0.009090563 -0.0325203 -0.085278355 -0.0027364662
-0.027222736 -0.10330148 -0.0402328 -0.033634566 0.028556908 -0.081893995 0.057021458 0.014815376
0.059352938 -0.10348542 -0.017910661 -0.09345444 0.039966624 -0.057255365 0.09616088 -0.034815904
-0.0016684247 -0.012988056 -0.0994664 0.00022902204 -0.08245498 -0.057174303 0.06722422 0.07656912
-0.04895866 0.08723413 0.055034272 -0.08751237 -0.009309617 0.08484316 -0.03824365 0.0905509
0.07459101 -0.108534455 -0.07160553 0.004720417 -0.10388742 -0.109810516 -0.073531374 0.09898072
0.03206398 -0.0735333 -0.06218769 -0.107352115 -0.009490763 -0.10864013 -0.031972345 -0.037764695
-0.07311041 -0.08181221 0.028406804 -0.008769155 0.012279269 -0.018886173 0.049603637 -0.06435676
0.048436288 0.035367012 0.077977985 -0.039973658 -0.11172836 0.06370134 0.028446564 0.034147326
-0.042481814 -0.05040084 -0.058186725 0.027087493 0.0481903 0.048217192 -0.10365999 -0.0033847804
-0.036930423 -0.0018865624 -0.038123332 0.022628523 0.082892574 -0.04881639 0.006022103 -0.051982827
-0.07462555 0.024380125 0.039414562 0.012534246 0.09200342 0.07884894 0.08634424 0.0067770304
-0.043859284 0.02524607 -0.07392684 -0.0141069135 0.049297072 0.007314533 0.003142506 0.07764373
0.03691209 0.06207306 0.0045880526 -0.07493244 -0.090019 -0.066737 0.04313042 0.069841005
-0.035204113 -0.09888502 -0.010507867 -0.06966801 0.006082393 0.0118031055 -0.064590365 -0.060052734
-0.028021812 0.023114331 0.0010935217 -0.043083124 -0.050583065 0.052288108 -0.030973904 -0.102344766
0.0057536215 0.08819149 0.019040562 0.04469975 0.10175007 -0.059472535 -0.08933163 -0.005697027
-0.07741933 0.04626561 -0.01678159 -0.0651099 0.053724296 0.040808104 -0.10054305 0.03866055
-0.089946195 0.053521313 -0.0020100698 0.098020084 -0.02489531 -0.08513578 0.032153003 -0.067390054
0.06643126 -0.05754902 -0.10043814 -0.06488055 0.09642018 0.024081029 -0.06537119 -0.011045106
-0.09664466 -0.033412598 -0.07808345 0.100045465 -0.05550795 0.008904099 0.04473453 0.06989441
0.028435685 -0.012316957 -0.09308834 0.034055315 -0.06726229 -0.07653587 0.10028065 -0.049217906
00000000: debb aabd 1f3d c63d f689 753b 566f a739
00000010: 3b92 cdbd b8cd d8bb 6a4a d93c d662 a8bd
00000020: 807c c73d 3cfc 6c3d 0400 3e3c 8368 453d
00000030: 263a 59bd 0792 03bd 295b 7abd dd9c c3bc
00000040: 2b8a 12bd c622 f3ba 2f16 c93a f98e b83d
00000050: e63d ce3d 17b8 6ebd 4d09 863d ee36 85bd
00000060: dfce 733d 4d4a 4eba b9b2 853d b8f1 793d
00000070: 3b96 2e3d 6c58 73ba 679d 6e3d 63df 07bd
00000080: e383 533d a143 953d 5f3b b6bd 6a6e 9b3d
00000090: e1ac fcbc bf60 3c3d c02c 273d 58dd b33d
000000a0: 83d7 8dbd 488a a3bd aaff 46bd 02e6 23bc
000000b0: 4a51 2e3d bb59 e13c e8ff 2dbc 62b9 34bc
000000c0: b92f 19bd f171 e8bd a43d 843b ec6d 753d
000000d0: 5cf4 063c f058 423d dfb3 633d 1a47 ddbd
000000e0: f315 5dbc 8ef1 223d fa3d 33bd 1362 98bd
000000f0: 5b2a 613d a69c 36ba 7503 123d 1ff3 e43c
00000100: b663 1ebc 3694 d2bc fe4a 133d 9fb0 5ebc
00000110: 099f dbbd 03b8 d5bd da64 cebd 4d48 4a3d
00000120: d16e 953d d8e4 99bc c8d6 1f3c 7e0a 25bd
00000130: 40fa 833a 3ae8 0b3d 8ddb a93d 715e a33d
00000140: 8d34 953d 7d8e 19bb fd9d 713c fc1c e5bd
00000150: 96f0 143c 0234 05bd 6ba6 aebd 4956 33bb
00000160: 3702 dfbc ba8f d3bd 26cb 24bd 66c4 09bd
00000170: 2df0 e93c 0ab8 a7bd 558f 693d 31bc 723c
00000180: 111c 733d 2af0 d3bd 61b9 92bc 0b65 bfbd
00000190: 0bb4 233d 9a84 6abd ffef c43d 1f9b 0ebd
000001a0: 0baf daba dbcb 54bc 0ab5 cbbd a325 7039
000001b0: 28de a8bd 9a2f 6abd daac 893d 45d0 9c3d
000001c0: e088 48bd cfa7 b23d 9e6b 613d af39 b3bd
000001d0: 5d87 18bc 40c2 ad3d 60a5 1cbd c072 b93d
000001e0: 2cc3 983d 5047 debd eca5 92bd baad 9a3b
000001f0: edc2 d4bd 56e4 e0bd 9e97 96bd 67b6 ca3d
00000200: 8555 033d a098 96bd 85b8 7ebd 6ddb dbbd
00000210: 257f 1bbc b77e debd 6ff5 02bd 27af 1abd
00000220: e9ba 95bd 298d a7bd 63b5 e83c 80ac 0fbc
00000230: fd2e 493c 2db7 9abc 2f2d 4b3d 7acd 83bd
00000240: 2165 463d 00dd 103d ecb2 9f3d 6bbb 23bd
00000250: d7d1 e4bd d975 823d c508 e93c 11de 0b3d
00000260: 6901 2ebd 1c71 4ebd 3455 6ebd 97e6 dd3c
00000270: 3163 453d 647f 453d b04b d4bd 31d3 5dbb
00000280: 5b44 17bd 8846 f7ba 3627 1cbd 745f b93c
00000290: 95c3 a93d b2f3 47bd 1055 c53b f2eb 54bd
000002a0: 48d5 98bd d4b8 c73c 2a71 213d 705c 4d3c
000002b0: 4a6c bc3d 8e7b a13d 40d5 b03d da11 de3b
000002c0: cba5 33bd d9d0 ce3c f566 97bd af20 67bc
000002d0: baeb 493d c0ae ef3b 80f2 4d3b ad03 9f3d
000002e0: 2231 173d 5240 7e3d 6057 963b 2e76 99bd
000002f0: e25b b8bd 69ad 88bd 86a9 303d cd08 8f3d
00000300: 3032 10bd 3b84 cabd 3029 2cbc 1aae 8ebd
00000310: d04e c73b d061 413c f447 84bd dbf9 75bd
00000320: 008e e5bc 445a bd3c 8054 8f3a ee77 30bd
00000330: 3030 4fbd 0e2c 563d fcbc fdbc 229a d1bd
00000340: e088 bc3b bd9d b43d f4fa 9b3c 1617 373d
00000350: 5762 d03d 7999 73bd 80f3 b6bd 20ae babb
00000360: 078e 9ebd 0281 3d3d 8c79 89bc 5758 85bd
00000370: 020e 5c3d 6626 273d 84e9 cdbd 865a 1e3d
00000380: b635 b8bd 2a39 5b3d 60bb 03bb c1be c83d
00000390: 40f1 cbbc ab5b aebd deb2 033d cc03 8abd
000003a0: 1d0d 883d 85b8 6bbd 83b2 cdbd 18e0 84bd
000003b0: f177 c53d 9445 c53c 55e1 85bd 88f6 34bc
000003c0: a3ed c5bd a6db 08bd 37ea 9fbd a3e4 cc3d
000003d0: 4e5c 63bd 80e2 113c 8e3b 373d cd24 8f3d
000003e0: f4f1 e83c 10cd 49bc 19a5 bebd 967d 0b3d
000003f0: d0c0 89bd d7be 9cbd f15f cd3d b798 49bd

conv_block_2.2.bias f4 [10]
-0.012367802 -0.029785182 -0.06929934 -0.091268316 -0.097628936 0.069384 0.06825229 0.07137228
0.08782514 -0.055119727
00000000: 52a2 4abc 0e00 f4bc d0ec 8dbd e2ea babd
00000010: aef1 c7bd 3319 8e3d dbc7 8b3d a12b 923d
00000020: abdd b33d 39c5 61bd

classifier.1.weight f4 [3, 1690]
-0.008762236 -0.0012490704 -0.008088987 0.023176346 -0.006414143 0.013935689 0.026038274 0.012120639
0.004282876 -0.019867089 0.016496157 0.018321795 0.0051672515 -0.014379196 0.018338086 -0.013152957
-0.0056124204 0.00095335714 0.010452267 0.0005298063 0.019447085 -0.0032459002 0.024770712 -0.021195369
0.019427458 -0.002388622 0.02301358 -0.012081062 -0.0051551783 -0.009624152 0.0045652986 -0.014141103
0.002162907 0.024178537 0.017604023 -0.009342854 -0.008270088 0.0064237597 0.025611429 -0.01032251
-0.0033941 0.003899839 -0.013805084 0.0143257715 0.0015642375 0.009707045 0.002805326 0.026199598
0.00437147 0.019438304 0.022051603 -0.016183179 0.0049561746 0.0057551395 -0.013295704 0.018961485
-0.004365682 -0.007888263 -0.001563043 0.020491637 -0.019068217 -0.020061089 0.011393773 0.011905274
-0.008282333 -0.014002347 0.013481512 0.020746663 0.020004556 -0.011701946 -0.007369839 -0.012738063
-0.0049498496 -0.017792804 -0.019775009 -0.013248703 0.010843039 -0.011161947 -0.004733571 -0.009132349
0.027704591 0.027564336 -0.0010628862 -0.018779924 0.025611421 -0.0084971795 0.0044869925 -0.01952303
-0.015743533 0.021813441 0.008729572 0.0037876142 -0.00010446628 0.025932014 -0.012668862 -0.011432003
0.011603748 0.023307074 0.007953151 -0.017489849 0.006120193 -0.00021472716 -0.0122425845 0.019048618
0.024927737 0.02717425 0.0048689535 -0.019276254 0.0014364432 0.016274327 0.007247476 0.02544584
0.018328467 0.025225542 0.011542475 -0.0046102162 0.025671491 0.018381258 0.024792425 -0.004376831
-0.0123556815 0.0074295904 0.015162592 0.013780811 -0.017987065 -0.009493032 0.018259985 -0.009732255
0.026252128 -0.010712617 -0.002139707 -0.002185333 0.0033272617 0.002860252 0.013743361 0.020038698
0.02528923 -0.0017158346 0.024382995 -0.0058575477 -0.018719172 0.010387603 -0.005100979 -0.017416703
-0.0040987176 0.017010929 0.0006792747 0.0022583695 -0.015551481 0.0016745843 0.013394402 0.014793001
-0.0130134495 0.0100422045 0.02972274 0.027327353 0.023460481 -0.0014811339 0.020060869 0.024441523
0.006303301 0.022846183 0.019116197 0.008053625 0.024222644 -0.009002845 -0.006578187 0.026464503
-0.013100527 -0.018007554 -0.009974497 -0.017184544 -0.015119353 0.008601959 -0.019559126 0.017666023
-0.026542036 0.0138726635 0.015711285 0.019971177 -0.011908584 0.017722365 -0.008600572 -0.014795943
-0.01029891 0.0013576552 0.0083776 0.0071048536 -0.0056293476 -0.011981207 0.017443655 0.01739914
0.012339188 0.014453802 0.015339041 0.016641783 0.006557604 0.020616207 0.00082661305 -0.013578667
0.0147495195 -0.026516052 0.013435461 0.010304562 -0.020420587 -0.0111380415 -0.009734978 -0.017458329
-0.0057564983 -0.014577436 -0.018366 0.0051246155 -0.019398844 -0.013119003 0.004593939 -0.023474012
0.010789589 0.025742207 -0.020341665 -0.01437601 0.022774218 0.026907459 -0.012659968 0.022302112
0.015029946 0.010324143 0.0012394902 -0.014547756 -0.008713343 -0.00721717 0.012753274 -1.4714608e-05
0.008140619 -0.019082714 -0.014266049 -0.008086286 -0.011123922 0.0016921789 0.021064276 0.003541694
-0.008603915 -0.020251956 0.00810665 0.0012401781 -0.008551679 0.012769847 0.011432047 -0.016728155
0.0055432618 -0.01795311 -0.021160806 -0.009385869 -0.02430599 0.00941179 -0.0003514463 -0.00056203926
00000000: 7b8f 0fbc d9b7 a3ba ac87 04bc 52dc bd3c
00000010: bb2d d2bb 8452 643c 384e d53c a595 463c
00000020: 5e57 8c3b 4ec0 a2bc f322 873c 9717 963c
00000030: 0c52 a93b b896 6bbc c139 963c 807f 57bc
00000040: 65e8 b7bb b7ea 793a fc3f 2b3c b3e2 0a3a
00000050: 7e4f 9f3c 2bb9 54bb f3eb ca3c e9a1 adbc
00000060: 5526 9f3c 6d8a 1cbb fa86 bc3c a6ef 45bc
00000070: c5ec a8bb 9fae 1dbc 8098 953b 16b0 67bc
00000080: 8fbf 0d3b 1112 c63c 5036 903c c512 19bc
00000090: 437f 07bc 677e d23b 0fcf d13c bf1f 29bc
000000a0: 8c6f 5ebb 7194 7f3b b82e 62bc a4b6 6a3c
000000b0: 1a07 cd3a 4c0a 1f3c 8fd9 373b 8aa0 d63c
000000c0: 8c3e 8f3b 143d 9f3c 90a5 b43c 9692 84bc
000000d0: 6867 a23b 9c95 bc3b 39d6 59bc 1e55 9b3c
000000e0: ff0d 8fbb c63d 01bc 05df ccba 14de a73c
000000f0: f334 9cbc 2757 a4bc f3ac 3a3c 570e 433c
00000100: 9fb2 07bc 1a6a 65bc 8fe1 5c3c e8f4 a93c
00000110: 98e0 a33c 85b9 3fbc b17e f1bb 4fb3 50bc
00000120: 5932 a2bb 37c2 91bc 33ff a1bc 1711 59bc
00000130: 00a7 313c 99e0 36bc 121c 9bbb d99f 15bc
00000140: bdf4 e23c 9ace e13c 8b50 8bba 5bd8 99bc
00000150: 0bcf d13c c137 0bbc 9f07 933b c3ee 9fbc
00000160: 95f8 80bc 1ab2 b23c 7b06 0f3c 9f39 783b
00000170: e814 dbb8 606f d43c 0f91 4fbc 4c4d 3bbc
00000180: a61d 3e3c 7aee be3c ef4d 023c df46 8fbc
00000190: e68b c83b 6228 61b9 1f95 48bc d90b 9c3c
000001a0: 4135 cc3c 889c de3c be8b 9f3b 3ce9 9dbc
000001b0: 0947 bc3a bd51 853c 3c7c ed3b cb73 d03c
000001c0: 9525 963c cca5 ce3c a61c 3d3c 4c11 97bb
000001d0: 054d d23c 4b94 963c 7c19 cb3c 856b 8fbb
000001e0: 7c6f 4abc ec73 f33b 856c 783c e9c8 613c
000001f0: 9c59 93bc a988 1bbc f795 953c 0974 1fbc
00000200: b40e d73c f983 2fbc 543a 0cbb ce37 0fbb
00000210: 300e 5a3b 1173 3b3b d62b 613c 3228 a43c
00000220: 5c2b cf3c dbe5 e0ba d9be c73c acf0 bfbb
00000230: f358 99bc c430 2a3c 1d26 a7bb 79ad 8ebc
00000240: 894e 86bb 815a 8b3c 5a11 323a 2701 143b
00000250: a4cb 7ebc ba7d db3a 3274 5b3c 585e 723c
00000260: 5d36 55bc 0f88 243c 1b7d f33c 9ddd df3c
00000270: 3230 c03c 9b22 c2ba b156 a43c 9739 c83c
00000280: ec8b ce3b eb27 bb3c 9299 9c3c 5af3 033c
00000290: 916e c63c ab80 13bc d58d d7bb 16cc d83c
000002a0: 98a3 56bc 9484 93bc 136c 23bc 9ac6 8cbc
000002b0: 2ab7 77bc 3bef 0c3c 763a a0bc 56b8 903c
000002c0: af6e d9bc 2b4a 633c f4b4 803c 989a a33c
000002d0: 391c 43bc 7e2e 913c 6ae9 0cbc af6a 72bc
000002e0: c2bc 28bc 59f3 b13a 3442 093c d5cf e83b
000002f0: 6476 b8bb d34c 44bc ffe5 8e3c a488 8e3c
00000300: 4e2a 4a3c a4cf 6c3c 9a50 7b3c 5954 883c
00000310: 2be1 d63b 52e3 a83c 10b1 583a 0f79 5ebc
00000320: f8a7 713c 3138 d9bc 6820 5c3c 77d4 283c
00000330: 1349 a7bc 557c 36bc 757f 1fbc c504 8fbc
00000340: 02a1 bcbb 33d6 6ebc 4b74 96bc 64ec a73b
00000350: 53ea 9ebc 16f1 56bc c188 963b 924c c0bc
00000360: d1c6 303c 52e1 d23c 90a3 a6bc 5b89 6bbc
00000370: ff90 ba3c 086d dc3c c16b 4fbc ebb2 b63c
00000380: 2a40 763c 9826 293c 6476 a23a b659 6ebc
00000390: 69c2 0ebc 037e ecbb 1cf3 503c c3de 76b7
000003a0: 3b60 053c 5a53 9cbc 25bc 69bc 577c 04bc
000003b0: 1c41 36bc 1acc dd3a fd8e ac3c c41b 683b
000003c0: 6ff7 0cbc 6ee7 a5bc c1d1 043c 798d a23a
000003d0: 571c 0cbc 9f38 513c 7b4d 3b3c 7c09 89bc
000003e0: 40a4 b53b 6712 93bc 6d59 adbc 30c7 19bc
000003f0: 5b1d c7bc e933 1a3c 5342 b8b9 d155 13ba

classifier.1.bias f4 [3]
-0.018324725 -0.009868047 0.01837809
00000000: bc1d 96bc 97ad 21bc a68d 963c
