models/05_TinyVGG_model_1.pth (torch, 36434 bytes, 10 tensors)

conv_block_1.0.weight f4 [10, 3, 3, 3]
000000 ef e3 03 3e ad 34 0e 3c 74 3d f4 3c 06 06 04 be
       0.12879919 0.008679551 0.02981446 -0.12892923
000010 d3 a1 e6 3d 77 3d a5 3d 0b 3e 78 3d c0 2f 69 3c
       0.11261334 0.08068364 0.060606044 0.014232576
000020 0e a1 94 3d 1b bd a1 bd 72 ec 25 be 89 65 96 3d
       0.07257281 -0.07897397 -0.16203478 0.07343585
000030 a8 23 33 3d 97 23 cd bd 37 85 0e 3e 31 e4 3e be
       0.043735176 -0.10016554 0.13918005 -0.18641736
000040 30 93 ef 3d e4 7b f3 3d 77 70 14 bd 6f 3e 08 be
       0.11697996 0.11888865 -0.036240067 -0.13305067
000050 4c a6 04 3d 62 ea 77 3c e2 9a 10 bd 17 55 b8 bd
       0.032385156 0.015131565 -0.035303958 -0.090006046
000060 2a b0 0d be b0 c3 b6 bd ee a6 47 be 04 69 8b bc
       -0.13836733 -0.08924043 -0.19497272 -0.017017849
000070 91 f1 55 3d 91 87 b9 3d 61 55 a8 3d 0e a9 b4 3b
       0.05223233 0.0905906 0.0821941 0.005513317
000080 b1 9d 06 be c5 10 e9 bd 5e 93 12 be d4 f8 0b 3e
       -0.13146092 -0.11380152 -0.14314029 0.13669139
000090 1c 2a 2b bd 5b 20 ce bd 4b 33 45 be 0e 03 39 3d
       -0.041788206 -0.10064765 -0.19257848 0.04516893
0000a0 94 b7 f7 bd b9 32 fa 3d 88 e7 21 be ee 1e ff bc
       -0.120955616 0.12216706 -0.15810978 -0.031142678
0000b0 f2 60 25 be 85 ed 2d 3e c0 a7 44 be 0e e3 4c 3d
       -0.16150263 0.16985138 -0.19204617 0.050021224
0000c0 53 72 a1 bd b2 97 b5 3d db 73 13 3e 8d a6 6b 3d
       -0.07883134 0.08866824 0.14399664 0.057531882
0000d0 03 51 22 3e 93 23 47 3d cd 8c a9 3d f1 08 24 3d
       0.15851216 0.04861791 0.08278809 0.04004759
0000e0 86 41 4c bc 57 b6 a8 bd 22 eb 78 bd 11 e0 18 be
       -0.012466794 -0.082379036 -0.060771115 -0.14929225
0000f0 e6 98 cf 3d fa e2 58 bd d1 4e fe 3d 33 e7 f8 3d
       0.10136585 -0.052950837 0.12417377 0.12153473
000100 40 ec 1c 3e 0d 5b 6c 3d db 42 3c be a4 30 26 39
       0.15324497 0.05770402 -0.18384878 0.00015849114
000110 c4 0d 4d 3d 23 1d 3f 3e da 18 44 be b8 d0 b1 3d
       0.050061956 0.18663459 -0.19150105 0.08682388
000120 89 f8 54 bd ca 33 d9 bd 72 9a d8 bd 34 44 05 be
       -0.051994834 -0.10605581 -0.10576333 -0.13014299
000130 51 dc 05 be 20 42 60 bc f1 20 2f 3d 48 12 39 be
       -0.13072325 -0.01368764 0.042756025 -0.1807338
000140 42 28 3d 3e f9 b4 13 be 32 23 73 bd 19 86 bb 3d
       0.18472388 -0.14424504 -0.059359737 0.091564365
000150 d0 71 06 be e1 2a 1d be 73 65 0d 3d 4a 8a 56 3d
       -0.13129354 -0.15348388 0.034520578 0.052377976
000160 e6 f1 f6 3c c0 89 15 be c0 7c 34 3e 36 82 90 3d
       0.030144643 -0.14603329 0.17625713 0.07056086
000170 41 05 26 be d5 28 0e 3e 59 00 c6 bd dd 7b 21 3c
       -0.16212942 0.13882764 -0.09668035 0.009856191
000180 1b 0c 41 be 66 43 1b be ff 2a 27 3d 7f b7 d9 3d
       -0.18852274 -0.15162429 0.04081249 0.10630702
000190 4c ed ac 3d 4f 89 0d be d0 85 d9 3d 9b 0e 2e be
       0.08443698 -0.1382191 0.10621226 -0.16997759
0001a0 36 56 31 be 20 22 ed bd 38 27 35 be f8 b5 03 be
       -0.17318043 -0.115787745 -0.17690742 -0.12862384
0001b0 5f 01 8d bd 5a bd c1 bd 0c b5 34 3e 21 30 2b be
       -0.06885027 -0.09459944 0.17647189 -0.16717578
0001c0 a7 49 f4 3a 57 34 b6 3d 9f 3d 14 3e b0 52 11 3d
       0.0018637673 0.08896702 0.14476632 0.035479248
0001d0 11 b1 a6 bd b0 09 e1 bd 65 3b 7f bd a3 f3 a0 bd
       -0.081392415 -0.10988176 -0.062312502 -0.0785897
0001e0 e4 fb ae 3d 92 57 ee 3d 20 c1 35 ba 95 f9 3a 3e
       0.08544138 0.116377965 -0.000693338 0.1825927
0001f0 ff 45 05 be 34 cf ba bd cf fd 06 bd d3 67 2b be
       -0.13014983 -0.09121552 -0.032956894 -0.16738825
000200 1c a1 db 3d ff b5 ee 3d 8e 2d 46 be 5a 90 8a 3d
       0.107240885 0.11655807 -0.19353315 0.06765814
000210 b3 84 ac bc 1b 66 05 be 05 e3 f2 bc 25 f3 13 be
       -0.02105937 -0.13027231 -0.029649267 -0.14448221
000220 57 d3 b4 bd 85 57 67 3d ea b1 ec bd 27 63 42 3c
       -0.088293724 0.05647995 -0.11557372 0.01186446
000230 bc 8c 41 be a7 6d 84 bd 90 7c 21 3e ad e7 b3 3d
       -0.18901342 -0.06466227 0.15770173 0.08784423
000240 17 b7 24 be 67 54 1a 3c bf 5b 42 bd 81 7e 1e 3c
       -0.16085468 0.009419537 -0.047450777 0.009673716
000250 5e 64 09 3e c5 36 05 bc c7 cd 0a bd 99 e3 dd 3d
       0.13417193 -0.008130734 -0.03388765 0.108344264
000260 8f 4a ac 3d 02 92 4e 3d 76 de ed 3d 37 39 e8 bd
       0.084126584 0.050432213 0.11614697 -0.11339038
000270 6f e6 2f 3e 86 a8 48 bd 57 c5 43 3e 7e cc db 3d
       0.17177747 -0.04898884 0.19118248 0.10732363
000280 56 68 a7 bc 34 11 df 3d f0 ad 3b 3d 3b b9 25 be
       -0.020435493 0.10891953 0.045820177 -0.16183941
000290 ee 58 44 be 01 ff 07 3e 23 7a c3 3d e2 34 17 be
       -0.19174549 0.1328087 0.0954478 -0.14766267
0002a0 e2 b1 ec 3d 9f 29 3f 3e c2 ab 34 3e a9 d9 5b bd
       0.11557366 0.18668221 0.17643645 -0.053674374
0002b0 27 20 0e be 5b 43 45 bd 0f 9a 6e 3d 5c aa a0 bd
       -0.13879453 -0.04815994 0.05825239 -0.078449935
0002c0 19 b7 d7 3d e9 ae 58 bd b8 20 1f be c8 91 d2 bd
       0.1053297 -0.052901182 -0.15539825 -0.10281712
0002d0 64 0a da 3d 5e 38 03 3e a0 9c e8 3d 71 75 cd bd
       0.10646513 0.12814471 0.11357999 -0.10032166
0002e0 22 5f 11 be 6c 0a 09 be de 81 33 3e df 3f 80 bd
       -0.14196447 -0.13382882 0.17530009 -0.062621824
0002f0 de 66 2c be 4b 65 d4 3d 3c 9a 64 bb d7 a5 08 bd
       -0.16836116 0.103708826 -0.003488197 -0.033361282
000300 cb 14 0c be 15 ba b7 3d fe 6b e0 bc ec 80 18 3b
       -0.13679807 0.08971039 -0.027395245 0.0023270203
000310 30 2d 03 be 44 fd 59 3d 24 f1 bc bd 15 d6 0f be
       -0.12810206 0.05322005 -0.092256814 -0.1404651
000320 f6 a8 3c 3e 98 b1 4c 3d 0d 83 7b 3d 5c 3d 07 be
       0.18423828 0.049974054 0.061404277 -0.13207
000330 89 c5 36 3e 98 e1 3b bc 96 41 29 be 98 2b 55 3d
       0.17848791 -0.01146736 -0.16528925 0.052043527
000340 c0 53 ad bd 57 72 e9 bd 4e 6f 04 3e cb 18 ac bc
       -0.0846324 -0.11398762 0.12933084 -0.021007916
000350 27 cb 49 bc e1 22 c7 bd bf af 81 3d aa c9 72 3d
       -0.012316502 -0.097234495 0.06332349 0.059274353
000360 e1 67 e8 3c f0 cb b3 3d 7e e4 03 bb 09 99 69 3d
       0.028369846 0.08779132 -0.0020125206 0.05703071
000370 37 05 ca 3d 98 5d 28 bc 8b c8 29 3c 1a de 08 be
       0.09864276 -0.010276221 0.010362755 -0.13365975
000380 ef ba d3 bd 63 4a cd 3d 96 17 2c 3c 53 d5 15 3e
       -0.10338389 0.10023954 0.01050367 0.14632158
000390 a8 79 b1 bd d5 a9 f1 3d 65 f8 2e be 44 fe e9 3d
       -0.08665782 0.11799971 -0.17086942 0.114254504
0003a0 f8 63 38 3e 89 fb c5 3d 64 58 0e be ca de 17 be
       0.18006885 0.09667117 -0.13900906 -0.14831081
0003b0 d1 a5 1f be 75 88 b3 bd d2 da 9a 3c 2d 5b 16 3e
       -0.15590598 -0.087662615 0.01890317 0.14683218
0003c0 ba eb db 3c 8a 16 3f 3e 50 09 19 3e d6 89 35 be
       0.026845802 0.18660942 0.14944959 -0.17728361
0003d0 4c 23 fc bd bf e8 9c 3d 39 5d 26 be 1a dd 99 bb
       -0.1231142 0.0766158 -0.16246499 -0.004695547
0003e0 dc 92 4d be 31 0f ab bd ea e3 e1 3d 70 0d 9c bd
       -0.20075554 -0.08352507 0.11029799 -0.076197505
0003f0 bd 6c 1d bd 0c 81 c3 bd d3 e6 0a be 95 12 06 3d
       -0.03843378 -0.09546098 -0.13564615 0.032732565

conv_block_1.0.bias f4 [10]
000000 e1 9f 25 3d 85 84 e2 bd 27 82 87 3d 7c 29 cc 3c
       0.040435676 -0.11060432 0.066166215 0.024922125
000010 d2 ef 88 bd b9 7b 62 bd 7e d6 11 be 0f 04 00 3d
       -0.06686367 -0.055293772 -0.14241979 0.03125387
000020 ed fc eb 3d 51 73 2a 3e
       0.11522851 0.16645552

conv_block_1.2.weight f4 [10, 10, 3, 3]
000000 f9 a6 df bd a8 a8 3b 3d f8 68 1e bd c7 c3 87 bd
       -0.109205194 0.04581514 -0.038674325 -0.066291384
000010 cf 09 c5 3d 08 2a 6d 3d fe bd da bd 3e 97 b6 3d
       0.096210115 0.057901412 -0.106807694 0.08915566
000020 ea ec 08 3d bd 85 8a 3d bf b1 c5 bd 1c 72 77 bd
       0.033429064 0.0676379 -0.09653043 -0.060411558
000030 20 f4 0a 3c 5f 9e 9c bd 73 fc 8d 3c 97 b6 2c bc
       0.0084810555 -0.076473944 0.017332291 -0.01054158
000040 a6 bb 7b bd 52 1e 7b 3d 28 a6 af bd 49 e1 d9 bc
       -0.061458252 0.061308213 -0.08576614 -0.026596682
000050 9b 48 ed bb b6 9d 81 bd 6d e0 64 bd e1 b2 0e bc
       -0.0072413213 -0.06328909 -0.05587809 -0.00870964
000060 a1 79 d4 3d c8 e5 77 3d 88 e3 fb bc 07 b3 b3 bd
       0.103747614 0.06052187 -0.030748144 -0.08774381
000070 d7 23 c5 3d 3f 90 01 bd 5e 1a 79 bd e9 c0 9f bd
       0.096259765 -0.031631704 -0.06081616 -0.078004666
000080 21 8f 20 3d 3f c1 63 3a 52 6f 65 bd 39 c3 4a bc
       0.039199 0.00086881587 -0.056014366 -0.012375646
000090 db fd 87 3d 69 74 81 3d 71 62 89 3d c1 0e 97 bd
       0.06640216 0.063210316 0.06708229 -0.07375861
0000a0 bb 69 4d 3b da 90 90 bc 18 aa a2 3c d7 8a 92 b7
       0.0031343538 -0.017647196 0.019856498 -1.7469209e-05
0000b0 05 aa 24 bc bd e5 06 b8 e8 67 1e bd 4e 83 0e bd
       -0.010050301 -3.216205e-05 -0.03867331 -0.03479319
0000c0 b4 e3 4a bd d4 f8 aa 3c 45 9b 40 3c cc ac 9c bd
       -0.04953356 0.020870604 0.011755769 -0.07650146
0000d0 a7 f7 9d 3d c0 3d ca 3d 95 40 18 3c aa 75 77 bd
       0.077132516 0.09875059 0.009292741 -0.060414948
0000e0 7e bd bb bc a9 e8 4e 3d ee 6d fe bc d7 4f 9c 3c
       -0.022917505 0.05051485 -0.031058278 0.01908104
0000f0 90 b2 c0 bc f6 b9 17 bd 4b 66 cb 3d 1b 81 a6 3c
       -0.023522645 -0.03704258 0.0993162 0.020325234
000100 fb a1 88 3d e9 81 ae bc e5 ba 33 bd df a1 ae bc
       0.0667152 -0.02130218 -0.04387941 -0.02131742
000110 fd 0d 2e bd 52 2d 73 bd 16 a7 57 3d 40 d0 42 3d
       -0.04249381 -0.059369393 0.05264958 0.047561884
000120 90 48 8f 3c 3b 0e b0 bc 1c 74 b8 bd c7 d8 db bd
       0.017490655 -0.02149116 -0.09006521 -0.10734706
000130 6e b8 85 3d ff 73 fd 3c 6d 56 69 bd 6d 13 51 bd
       0.06529318 0.0309391 -0.056967188 -0.051043916
000140 9b cd 53 3d 4c cc 89 3d aa 18 03 39 0f ed 17 bd
       0.051709753 0.0672842 0.00012502322 -0.03709131
000150 9f 94 aa 3d 6f 37 d1 3d 55 25 aa bc c8 2e c2 3c
       0.083291285 0.10215651 -0.020769754 0.023703948
000160 93 7b 80 bc 9b f5 9f bd 5b d1 82 3c cf c4 4b bc
       -0.015683925 -0.078105174 0.01596897 -0.01243706
000170 69 61 bc 3d 48 df 98 bd df 78 b5 3d 7f 22 ac bd
       0.09198267 -0.074644625 0.08860945 -0.08405017
000180 18 4d e3 bd 57 df 83 bd cf 0e 85 bd d1 95 67 3d
       -0.11098689 -0.06439083 -0.06496965 0.05653936
000190 d4 de 99 3d b4 f9 15 bd d8 ac a2 bd 91 58 ab bd
       0.07513204 -0.03661509 -0.079431236 -0.08366502
0001a0 69 f4 c5 bd 74 aa ad bc a7 1c 81 3d ca 1f 9a bb
       -0.09665758 -0.021199442 0.06304293 -0.0047034966
0001b0 32 7e 37 3d 82 42 28 3d 76 39 c3 3d fe 69 8a 3c
       0.044798084 0.04107905 0.09532444 0.016896244
0001c0 e4 d9 66 bd f1 84 9c bd d4 51 31 bc 01 8c 9b bd
       -0.05636014 -0.07642544 -0.010822732 -0.07595063
0001d0 de 94 8a 3d 67 7b 36 3d 4f 94 94 3d 34 ab aa 3c
       0.067666754 0.04455128 0.0725485 0.02083359
0001e0 8b c6 79 bc 22 79 c5 bd 29 b2 f4 bc 74 40 8b 3d
       -0.01524509 -0.09642245 -0.02987011 0.06799403
0001f0 7a 78 59 3b a9 2b c3 3d f4 7c c4 3c f1 3e 54 bd
       0.0033183382 0.09529812 0.023985364 -0.051817838
000200 5c 31 82 3d e9 4e 35 bd 56 c9 75 bd a6 15 a9 3d
       0.06357071 -0.044264708 -0.060006462 0.08256082
000210 cd 9f fb bb b2 56 6e bd 9f de a1 bd 65 68 58 3d
       -0.007678962 -0.058188148 -0.0790379 0.052833933
000220 b8 fb 30 3c a8 fb 95 3d 9e 29 21 3d 3f 35 d2 bd
       0.010802202 0.0732339 0.03934633 -0.10264062
000230 57 f9 c6 bc 80 c3 88 3d 95 ed ba 3d 7e 46 97 3d
       -0.024288816 0.06677914 0.091273464 0.07386492
000240 ac 77 32 bd f8 6d 2a bd 1b 63 64 bb dd 21 91 3c
       -0.04357116 -0.04160878 -0.003484911 0.017716343
000250 a1 02 cb bd 1f 17 91 bd b9 3c aa bd 17 5a ea 3d
       -0.09912611 -0.07084488 -0.08312363 0.114429645
000260 40 c7 9f 3d 05 38 4b 3c ef 35 c3 bd 5d 78 63 bc
       0.07801676 0.012403493 -0.095317714 -0.013883677
000270 fe eb 99 3c 4d 0b 61 bd 3e 6b dc 3d 4f e4 83 3d
       0.018789288 -0.054942418 0.10762642 0.06440031
000280 99 c8 12 bd 2c 1a e9 b9 2f d2 12 bc 14 94 42 3d
       -0.035835836 -0.00044460723 -0.0089612445 0.0475045
000290 70 0f cb 3d 84 24 5c bd 26 fc b1 bd e9 da 5b 3b
       0.09915054 -0.05374576 -0.086906716 0.0033547229
0002a0 d4 e7 df bd 33 53 6e bd 8e 2a 6f 3d c4 90 31 3d
       -0.109328896 -0.058184814 0.058390193 0.04335095
0002b0 87 1e 9c 3d e5 7f 10 bd b1 c3 2f bd 68 1f 12 bd
       0.0762301 -0.03527822 -0.042911235 -0.035674483
0002c0 86 65 80 3d 80 63 95 bc 44 cf 5c bd 01 00 ca 3d
       0.06269364 -0.018235922 -0.0539086 0.09863282
0002d0 ae b5 a5 bc 09 2d 4f bd d5 eb c4 3d 71 df 82 3d
       -0.020228233 -0.05058006 0.09615294 0.06390274
0002e0 63 06 51 3d 80 3b c0 bd 94 75 a2 3d 00 08 9a 3d
       0.05103148 -0.09386349 0.079325825 0.07521057
0002f0 98 f6 04 3d 13 45 cc bd fb 67 0a 3d 35 da 91 3d
       0.032461733 -0.09974112 0.03379057 0.07121698
000300 8f 33 72 bd f0 ba cc 3d 5b d5 be 3d 27 5a 40 bd
       -0.0591312 0.09996593 0.09318038 -0.046960976
000310 1e ba 2c 3c 9c e2 07 bc 35 29 be bd f0 81 82 bd
       0.010542421 -0.008293774 -0.09285203 -0.0637244
000320 4c 35 54 3d e7 3b 4e 3c 0c 3a a7 bd 31 6b 75 bd
       0.05180864 0.012587524 -0.081653684 -0.05991668
000330 8c 0a 3f 3d b9 bd 1b bd f7 a3 14 3d 59 a0 86 3d
       0.046640918 -0.03802273 0.03628918 0.06573553
000340 5d 3c b4 3d 04 3a d0 bd 30 60 c4 bd e5 46 cc bb
       0.08800576 -0.101673156 -0.09588659 -0.006234037
000350 6d 67 4e bd a8 2e 40 3d b0 98 4f 3d 40 78 3e 3d
       -0.050391603 0.046919495 0.050682724 0.046501398
000360 44 82 d9 bc b9 25 5d b9 cd ab cf 3c 09 9a cc bd
       -0.026551373 -0.00021090255 0.025350476 -0.099903174
000370 dd be c7 3d bb ee 23 b9 68 d0 bd bd 53 de c7 bd
       0.09753201 -0.00015633825 -0.09268266 -0.09759202
000380 e2 35 43 bd a3 42 c9 bd 68 2d 7a 3d 10 a1 87 bd
       -0.04765881 -0.09827163 0.06107846 -0.06622517
000390 28 fb 3c 3d 36 a2 87 3c 24 59 8b bd 43 91 7a 3d
       0.04613796 0.01655684 -0.068041116 0.06117369
0003a0 66 88 d4 3c 17 47 8c bd b9 85 c5 bd 1a da fe bb
       0.025943946 -0.06849497 -0.09644646 -0.0077774646
0003b0 54 2a 0e 3d 0a c7 3c bd f3 20 54 bc ab 36 9d 3d
       0.034708336 -0.046088256 -0.012947309 0.07676443
0003c0 d2 c2 d3 bd 4b d2 a9 3d 5d a5 bf 3c dc 04 0d bb
       -0.103398934 0.08292063 0.023394281 -0.002151779
0003d0 b6 4a a1 bd ec e7 d9 bd ac 40 29 bc 02 8d 90 bc
       -0.07875578 -0.10639939 -0.01033036 -0.017645363
0003e0 d6 f2 ae 3d 04 08 2e ba 61 af a8 3d 62 9c 4b bd
       0.08542411 -0.00066387677 0.08236576 -0.049709685
0003f0 e6 13 bf 3d 2b 1b af 3c 2f 74 57 bb 09 9d 70 3d
       0.09329967 0.02137526 -0.0032875647 0.05874351

conv_block_1.2.bias f4 [10]
000000 e0 f1 ac bd 08 1e c0 bd d9 36 49 3d 2d 83 9d 3c
       -0.084445715 -0.09380728 0.049124572 0.019227589
000010 fb 8f 28 bd 70 d1 7c bd 88 2b 1b bd 44 20 a0 3d
       -0.041152935 -0.061723173 -0.03788331 0.07818654
000020 73 9b 54 3d b7 a6 4c 3c
       0.05190606 0.01249092

conv_block_2.0.weight f4 [10, 10, 3, 3]
000000 1e b1 48 bd bc 8c 44 bc a3 60 5f 3d ab 7b da 3d
       -0.048997037 -0.011996444 0.05453552 0.10668119
000010 af 41 9a 3c 67 04 34 3d 48 95 af 3d 65 cb 99 bd
       0.018830149 0.04394951 0.08573395 -0.075094976
000020 51 fb c1 3d eb 03 eb bc d6 3d 51 bd 93 b4 0a 3d
       0.09471763 -0.028688392 -0.051084362 0.033863615
000030 4b e6 eb 3c bd 8b ba bd 9a 76 2d bb 59 6f 56 bc
       0.028796336 -0.09108684 -0.0026468397 -0.013088071
000040 c3 5a d3 3d 3d 6f 81 bd 9a 74 99 3d 67 8d 7d 3c
       0.10320046 -0.06320045 0.07492943 0.0154756075
000050 19 f1 15 3d 9e d5 48 bc 79 f3 af bd 92 2e 1f bd
       0.03660688 -0.012257962 -0.085913606 -0.038862772
000060 aa 57 d2 3d e0 4c 91 3d 49 5c dc 3d a3 fa ae bd
       0.10270627 0.07094741 0.107597895 -0.08543899
000070 a9 bc 8f bc 5a 7f b5 bd 38 54 2a bd 59 ed e4 3c
       -0.017546015 -0.08862181 -0.041584224 0.027945207
000080 88 c4 7d 3d e3 53 dd 3c 60 05 0d bc f9 dc c3 bd
       0.061955005 0.02701754 -0.0086072385 -0.095636316
000090 ce d3 33 3d 31 4f 7f bc 0c f1 23 bd 57 7a 7b bd
       0.043903165 -0.015582846 -0.040024802 -0.06139597
0000a0 c1 d3 2d 3c b6 4f ab 3d 14 80 29 3d ae 6e f1 bc
       0.010609568 0.08364813 0.04138191 -0.029471722
0000b0 dd 5d 3c bc 5c a1 aa bd 6f c7 81 bd 7c 5c a4 3d
       -0.011496988 -0.08331558 -0.06336867 0.080254525
0000c0 a5 1e 0b 3d 4e 26 cd bd 32 a2 a5 bd 48 9c ce 3c
       0.03396477 -0.10017072 -0.08087577 0.025221005
0000d0 6b 07 be bc 55 31 c6 3d 7e f4 70 3d 7d 5c 97 bd
       -0.023196897 0.09677378 0.058826916 -0.073906876
0000e0 90 5b d2 bd 48 45 5f bd 5a 89 8b bd 38 bb 65 bd
       -0.102713704 -0.05450943 -0.06813307 -0.05608675
0000f0 16 3f 9d 3d a9 0d 11 bd e7 fc c6 3d c4 e2 08 3d
       0.07678048 -0.035413418 0.09716206 0.033419386
000100 60 72 aa 3d 2f a5 23 3d 90 64 a5 bd 3e 91 db b9
       0.083225965 0.039952453 -0.080758214 -0.0004187915
000110 24 39 22 bb fd b9 e9 3c 54 c7 8f 3d 68 7f d9 3c
       -0.0024753297 0.028531069 0.07020441 0.02655001
000120 d4 12 39 3d 5e 31 58 bd 5d 88 7d 3d 56 12 b5 bb
       0.04518397 -0.052781455 0.061897624 -0.0055258675
000130 1a e5 60 bd 74 29 bd 3d d1 76 c8 3c 28 a3 dc 3c
       -0.05490599 0.09236422 0.024470719 0.026933268
000140 6c 8b a6 bc b0 63 ca 3d e3 87 11 3d dd 39 1f bd
       -0.020330153 0.09882295 0.035529982 -0.038873542
000150 f8 e7 b7 3d 20 4f 88 bd 11 81 ff 3c c7 40 86 bd
       0.089797914 -0.06655717 0.031189473 -0.06555324
000160 eb 72 4d 3d 8a 13 86 3d 91 ba a4 bd 41 48 c9 bd
       0.050158422 0.065466955 -0.08043397 -0.098282345
000170 73 f3 8b bd 7e e9 a4 3d e0 42 8c bd e9 99 5e bd
       -0.06833544 0.080523476 -0.06848693 -0.054346
000180 6b 4f a3 3c 45 b5 89 3d ae da 6d bd 25 7f fa 3b
       0.01993533 0.067240275 -0.058069877 0.0076445513
000190 99 cc f3 bc 80 a9 e7 3d a2 7c 1b bb 66 a0 4e bd
       -0.029760646 0.113116264 -0.002372541 -0.050445937
0001a0 bf c1 8d bd bd 0d 85 3d 0c 67 2a bd df 53 ac 3c
       -0.0692172 0.06496761 -0.04160218 0.021036087
0001b0 6c 65 97 3d 3d a3 8f bd 06 e8 3e bd af 91 83 bd
       0.073923916 -0.07013557 -0.046607994 -0.06424271
0001c0 4c 1f d7 3c b1 b0 9b 3a f8 c7 2e bd 6a e2 08 bd
       0.02626004 0.001187822 -0.042671174 -0.03341905
0001d0 8a 9b 17 3d 77 f5 91 3d 63 20 9d 3c 42 e6 ac bd
       0.037013568 0.07126897 0.019180482 -0.08442356
0001e0 24 bd 0c 3d 1e d7 b1 b9 47 d0 b3 bd 24 b3 96 3d
       0.034360066 -0.00033920346 -0.0877996 0.07358387
0001f0 dc 3c b2 3d 62 f1 19 bd bb a3 bb 3d 0e 66 e2 3a
       0.08703014 -0.037583716 0.091620885 0.0017272846
000200 dd 1a a7 3c 08 6f 85 3c 22 6f b7 3c 8c 67 9d 3d
       0.020398552 0.016288295 0.02239186 0.076857656
000210 9c 43 fb bb 02 5f 68 bd 7b bd 55 3d 0e af 9d bb
       -0.007667972 -0.05673123 0.052182656 -0.004812128
000220 28 5b 8a bd 79 aa 6b 3b f9 d8 4b bd d5 5b e3 3c
       -0.06755668 0.0035959764 -0.049767468 0.02775375
000230 05 62 1f bd b9 88 ae bd 4d e0 a1 bd f3 79 7c bd
       -0.038911838 -0.085221715 -0.0790411 -0.061639737
000240 58 75 00 bd d3 3c be 3d 0b 8f 88 bd 59 ca e1 bd
       -0.031361908 0.09288945 -0.06667908 -0.11024923
000250 3b da 2b 3d 4d 2b 59 3c dc a5 86 bb 9f 39 82 bc
       0.041956168 0.013254953 -0.0041091274 -0.015896617
000260 df b3 b2 3d f2 b1 22 bc a3 2e 8e bc 10 9a 7f bd
       0.08725714 -0.009930121 -0.017356222 -0.062402785
000270 7a 00 31 3d e3 8b c2 3d 92 6c a0 bd 26 e4 9e 3d
       0.043213345 0.094993375 -0.07833208 0.077583596
000280 38 53 a9 3d 4b 90 88 bd 68 35 91 3c 6a ee 26 bc
       0.08267826 -0.06668147 0.017725661 -0.010188678
000290 8f 0e 0d 3d 06 ef 44 ba 79 ec 8b bd c0 ed 88 bd
       0.034437712 -0.0007512424 -0.06832213 -0.06685972
0002a0 fb de ff 3c 1f 7b fe bc be 69 c3 ba 52 d5 eb ba
       0.031234255 -0.031064568 -0.0014908833 -0.0017992652
0002b0 3b bc 52 ba 50 8c c4 bb 92 97 aa bd f8 47 6c 3d
       -0.0008038913 -0.005998172 -0.08329691 0.057685822
0002c0 b6 d3 ab bd c4 6a 24 bc c5 d7 0c 3d 68 7f 6e 3d
       -0.0838999 -0.0100352205 0.03438546 0.058226973
0002d0 fd 7d 3f bd 99 aa 74 3d ec 3e 17 3c 3b 50 6e bd
       -0.04675101 0.059733007 0.00923131 -0.058181982
0002e0 f4 a4 af bd ce d0 1e 3c b7 b9 2c bd 91 8f 12 bd
       -0.08576384 0.009693338 -0.0421693 -0.035781447
0002f0 25 e3 44 bd 58 ae 36 3d 95 37 29 3c 16 ac 8f bc
       -0.048068184 0.04459986 0.010328193 -0.017538112
000300 8f 5b 25 3d 01 aa af bd cb 5d 80 3a 52 ac bd 3d
       0.04037052 -0.085773475 0.0009793577 0.09261383
000310 fc 99 a2 3d 3b ef 41 bd ab 88 3d 3d 4d 44 89 3d
       0.079395264 -0.04734729 0.046272915 0.067024805
000320 7a 51 82 3d 5b 23 ac 3d 5e 6b 93 3d 7e 75 a5 bc
       0.06363197 0.08405181 0.07198213 -0.020197626
000330 fc 1f ab 3d 2e d5 a1 bd 01 6b c0 3d 43 fd 02 bd
       0.0835571 -0.07901989 0.093954094 -0.03197981
000340 bf b9 1b 3d ed 62 bb 3d 5a 49 16 3d 75 d5 e6 bd
       0.03801894 0.09149728 0.036691047 -0.112711824
000350 14 9c b3 3d 92 b5 39 bd c1 52 a1 3d 01 d3 02 3d
       0.08770004 -0.045339175 0.07877112 0.03193951
000360 59 f0 bd 3d ff 95 6d bc d7 88 25 bb 65 91 76 3c
       0.09274358 -0.014501094 -0.0025258565 0.015049313
000370 f1 6a a7 bd c2 67 96 bd bf 26 b3 3c 53 c7 8e 3b
       -0.08174694 -0.07344009 0.021869062 0.0043572574
000380 2d 72 64 3d 8e 64 51 bd c1 b0 d3 bd ea dc 1c bd
       0.05577295 -0.051121287 -0.103364475 -0.038296618
000390 a3 30 81 3d 5f 0a ee bb c0 60 85 bd 52 79 da bb
       0.06308105 -0.00726442 -0.06512594 -0.0066672945
0003a0 bf 0b d2 bd 24 a3 bb 3b a9 89 1b bc ed 14 99 bd
       -0.10256147 0.005726235 -0.00949327 -0.074746944
0003b0 a3 48 1a 3d 83 59 4b 3d 16 69 51 3c bc d3 5c 3d
       0.037666928 0.049645912 0.012781402 0.053912863
0003c0 04 69 d8 3d b1 68 78 3d 79 88 48 bd 1f a0 7e 3d
       0.10566905 0.060646717 -0.048958275 0.062164422
0003d0 c8 b1 a9 bc 21 6c f9 bc ca 50 3d 3d 87 0a 11 3d
       -0.020714656 -0.030447068 0.046219625 0.03541043
0003e0 5e 3e 09 3d 3c 70 67 bb 19 05 ac bd a3 cf 9e bd
       0.033506744 -0.00353147 -0.0839941 -0.07754447
0003f0 d3 7d 0c bd 13 6f de bd ee f3 a8 bc f5 cb 98 bd
       -0.034299683 -0.108610295 -0.020624127 -0.07460777

conv_block_2.0.bias f4 [10]
000000 6f 71 80 3d bd 61 b7 3d 0c 90 82 3d f9 3a 15 bd
       0.06271636 0.08954189 0.06375131 -0.036433194
000010 b9 b8 b2 bd 49 d3 04 3d d8 4a 66 bd 08 7c 2d bd
       -0.08726639 0.03242806 -0.05622372 -0.042354614
000020 a0 81 1c bb 46 f8 b9 bd
       -0.0023880973 -0.090805575

conv_block_2.2.weight f4 [10, 10, 3, 3]
000000 a7 5d 53 3d ec 88 65 3d a4 64 cb bd 3d d8 43 3d
       0.051602986 0.056038782 -0.09931305 0.047813643
000010 aa f8 9e bd 5b 10 85 3d e1 8f 99 3d c1 a3 9a 3c
       -0.07762273 0.0649726 0.07498146 0.018876912
000020 f4 21 07 bd 6a e0 4a bd 0c 84 c1 bd ab 46 39 3c
       -0.032991365 -0.049530424 -0.09449014 0.011308352
000030 46 00 78 3c 8a c7 8b 3d a1 5b 9c 3d 27 20 94 bd
       0.015136784 0.068251684 0.07634664 -0.07232695
000040 9f eb d7 bd c3 b3 a4 3d 65 3c 4f bd 77 37 64 bd
       -0.10542988 0.08042099 -0.050594706 -0.055716958
000050 b8 97 c7 3c f1 75 29 3d 3c fe 19 bc 4b 6d b7 3c
       0.024364337 0.041372243 -0.009398993 0.022390982
000060 59 5a 7a bd 70 ce 39 3c a3 bb b1 bd 50 e3 a2 3d
       -0.06112132 0.011340722 -0.08678367 0.07953513
000070 00 34 3b bc 2e b4 d6 bd 96 3e 16 bd 95 71 0c 3d
       -0.011425972 -0.10483585 -0.03668078 0.034288008
000080 bc ce 12 bd 96 b6 38 3d c3 d9 8a 3d 5a 7d 41 3d
       -0.03584169 0.045096003 0.06779816 0.047238685
000090 af 45 d2 3d f0 9a d1 3d 2d 1e 4c bd ac 5f 9c 3c
       0.10267197 0.1023463 -0.049833465 0.019088589
0000a0 5c b2 8f 3d e0 e1 23 3c 81 ef bf 3d 81 06 ad 3d
       0.07016441 0.010002583 0.093718536 0.08448506
0000b0 9b 34 95 3d 7d b3 b8 3c e4 68 29 bd 6a d6 9c bc
       0.07285424 0.022546524 -0.041359797 -0.01914521
0000c0 23 66 80 bd 50 bf bd 3d 72 01 8f bd ad cd cf bd
       -0.06269481 0.092650056 -0.069826975 -0.101466514
0000d0 1c 3a a4 bd 30 97 aa 3d a6 6d 2c 3d 98 57 c9 3d
       -0.08018896 0.08329618 0.042096756 0.0983116
0000e0 b7 35 5e bc 4c 31 b1 3d 29 31 dc 3d a0 ca ba bd
       -0.013562611 0.08651981 0.10751564 -0.09120679
0000f0 00 33 93 b3 92 85 c8 3d b0 85 9f bc 5d ef 16 bd
       -6.854498e-08 0.097911015 -0.019472927 -0.03684937
000100 51 2a 89 bd fd 86 3e 3d 39 10 be 3d f5 09 9f bd
       -0.06697524 0.046515454 0.09280438 -0.07765571
000110 f5 c0 c5 3d 83 a2 07 bd a5 6c 9a bd 53 3c c6 bb
       0.09655944 -0.033113968 -0.075402535 -0.0060496717
000120 2e 7c 71 3d c0 9f 9f bc 70 35 c2 bd 22 56 5d 3d
       0.058956318 -0.019485354 -0.09482849 0.05403722
000130 80 9e 2d 3a c0 33 9c 3b 60 dd 8c bb bd 4d 98 bd
       0.00066230446 0.0047669113 -0.004298851 -0.074367024
000140 6a d5 58 3d 94 d2 e3 3c 50 d4 26 bd b4 a9 d6 3c
       0.052937903 0.027810372 -0.04072982 0.026203968
000150 bc 1e bb 3c 48 70 d3 bd 2b d7 ae bd 31 9f 9c 3d
       0.022841804 -0.1032415 -0.08537134 0.07647551
000160 71 c2 93 bd 92 b1 af bd c2 e3 e8 bd 44 76 d0 bd
       -0.07214821 -0.08578791 -0.11371566 -0.101788074
000170 23 6d ad 3d b1 62 fb bd bc 07 08 bd 12 9a 84 3d
       0.08468082 -0.12274683 -0.0332105 0.06474699
000180 53 c5 83 bd 0c b7 35 bb 89 f2 13 3d 4a 83 1a 3d
       -0.06434121 -0.0027727513 0.03611997 0.037722863
000190 a1 86 99 3c 26 a4 c1 bd 84 9a 11 bd 28 02 a8 3b
       0.018740954 -0.09455137 -0.03554775 0.00512721
0001a0 63 59 2d bd 17 6f 4f 3d cc 4b 8d bc 42 a5 e5 bd
       -0.042321574 0.050643053 -0.017248057 -0.11213161
0001b0 92 01 ad 3d d7 3f 74 3d fc 4a 0e 3d e3 4c 1d bd
       0.08447565 0.059631195 0.03473948 -0.038403403
0001c0 94 fb 5d bd 39 08 ad 3d 7c 29 22 bd 32 18 1c bc
       -0.054195 0.08448834 -0.039590344 -0.009527253
0001d0 c3 63 ca bd 68 bc 30 bc 44 f6 0f bd 31 a8 6b bd
       -0.09882309 -0.010787107 -0.035146967 -0.057533447
0001e0 76 41 c5 bd a2 7f 7c 3d 54 c2 b4 3c 93 7b be bd
       -0.09631626 0.061645158 0.02206532 -0.09300914
0001f0 ef 7c b3 bc ea 0a b5 bd 0c 77 8b bd 94 4c 99 3c
       -0.021910159 -0.08839972 -0.06809816 0.018713273
000200 16 74 3a bd b9 b3 6f bd 75 0e 3f bd 00 14 6a bc
       -0.045520864 -0.058521006 -0.046644647 -0.014286995
000210 00 ec e0 39 42 0e 35 3d 1c b4 cb 3c 3c 32 96 bc
       0.00042900443 0.04420305 0.024866156 -0.0183345
000220 59 30 8e bd 85 f9 e8 bd c6 7a 64 3d 5f b5 7c 3d
       -0.06942815 -0.11375717 0.05578115 0.061696406
000230 9d 75 76 3d 73 a2 85 bc 85 d2 82 bd 9a 2d 95 bd
       0.06017076 -0.016312813 -0.0638781 -0.072840884
000240 74 19 e1 3b 24 72 38 bd bb 88 23 3d ba 70 8e bb
       0.0068694893 -0.045030728 0.03992532 -0.004346934
000250 13 7c d9 3c 40 01 7b 3d 56 4f 6c 3c 53 ca bf bc
       0.026548421 0.06128049 0.014423212 -0.023411905
000260 e0 50 3a bd e3 6e 29 3d af a5 c0 bd 8e bf 9b 3d
       -0.045487285 0.041365515 -0.09406602 0.076048955
000270 10 cf 10 bd 5d c3 b4 3d 63 23 c8 bc a7 c9 6a bc
       -0.03535372 0.08826325 -0.024430936 -0.014330304
000280 40 9b 74 bb 4f 13 8f 3d 9a 0c 41 3d b0 6c c1 bc
       -0.0037323982 0.06986105 0.04713116 -0.023611397
000290 b0 cf 46 bd 78 b9 aa bc 62 7c 64 3d b6 eb 5f 3d
       -0.04853791 -0.020840392 0.055782683 0.05466815
0002a0 66 18 11 3d ad 44 9e 3d 00 af 29 3c 00 79 df 39
       0.03542366 0.077279426 0.010356665 0.00042624027
0002b0 bc c7 87 bc 5f d6 89 3d 58 13 9d bd 20 c6 90 bc
       -0.016574733 0.06730341 -0.07669705 -0.017672598
0002c0 f9 de ba 3d 4d 00 99 3d 68 1d b8 bc 74 b7 e6 3c
       0.0912456 0.074707605 -0.02247496 0.02816365
0002d0 27 e0 bf 3d 9a 4e 52 3d 96 3b 84 bd 36 ba 0c bd
       0.093689255 0.05134449 -0.064566776 -0.034357272
0002e0 ca f9 40 bd f8 f9 49 bd cc 46 c5 3c 26 31 24 3d
       -0.047113217 -0.049310654 0.02408161 0.040085934
0002f0 c6 67 18 3d 12 fa 56 3d ae 46 30 bd fe 9e 69 3d
       0.03720834 0.05248458 -0.043036155 0.057036392
000300 6c dc ab bd 4a fb 0b bd f7 a3 c3 3d 43 4d 8f 3d
       -0.083916515 -0.034175195 0.09552758 0.069971584
000310 48 3e 55 bc fe 28 bc bd fa 26 0e 3d 08 df 92 bd
       -0.013015337 -0.09187506 0.03470514 -0.07171446
000320 b5 b8 c5 bd fd a2 b6 bd d7 7a 82 3d 2f 25 d4 3d
       -0.09654371 -0.08917806 0.06371086 0.10358655
000330 86 77 4b 3d 19 77 97 3d 6e 2a c7 bd eb 7f cf 3d
       0.049674533 0.07395763 -0.0972489 0.1013182
000340 09 ff 98 bd 30 46 76 bc c2 48 78 3d a4 ae d8 3c
       -0.07470519 -0.015031382 0.060616262 0.026450463
000350 f9 86 ad bd 8c 5b 98 bd a8 5f 5c 3c 87 ce 60 bd
       -0.084730096 -0.07439336 0.013450541 -0.05488446
000360 c5 a3 be 3d 4c e9 9b bc 90 21 88 3c 60 cc d2 bc
       0.0930858 -0.019032143 0.016617566 -0.02573222
000370 20 74 52 bb d6 b8 45 3d 35 d7 96 3d 90 7a a1 bc
       -0.0032112673 0.048271976 0.07365266 -0.019711763
000380 ef 55 6f bd 46 33 0b bd 46 24 29 3d e6 d6 3e 3d
       -0.058431562 -0.033984445 0.04129436 0.046591662
000390 64 2d a2 3c 70 3b 92 bb a9 b0 d3 3d e3 5c d5 3d
       0.019797035 -0.004462652 0.103364296 0.10418107
0003a0 e2 40 09 bd b6 ae 1d bd ee 83 19 bd c5 87 c0 3d
       -0.033509143 -0.038496695 -0.037479334 0.09400896
0003b0 7f 7d 5f bd 38 35 3e bc 00 77 9e 3a c8 2e 89 bc
       -0.05456304 -0.011609368 0.0012089908 -0.01674594
0003c0 3b a3 d1 3d b8 37 63 3c 5c cd a1 bc ab 6c b0 3d
       0.10236212 0.013868265 -0.019751243 0.08614477
0003d0 83 68 9b 3d c1 9d 56 bd 6e 3d 2a bd 5d 6b aa 3d
       0.075882934 -0.05239654 -0.04156249 0.08321259
0003e0 40 4e f4 3b bb c2 a4 bd 99 72 d5 3d 15 4a b7 3d
       0.007455617 -0.080449544 0.104222484 0.08949677
0003f0 49 ef 8d 3d 55 35 8c 3d 9f 29 be 3d 80 df 80 ba
       0.06930406 0.0684611 0.09285282 -0.0009832233

conv_block_2.2.bias f4 [10]
000000 d3 82 53 bc a2 b7 90 3d f7 02 34 bd 7d 17 04 3b
       -0.012909609 0.07066275 -0.04394814 0.0020155602
000010 a6 01 6e bc f8 07 5a 3d a1 69 3f 3d b5 cf d5 bd
       -0.01452676 0.053230256 0.046731595 -0.104400076
000020 5a ab b9 3d 0c b6 7e bd
       0.09065886 -0.062185332

classifier.1.weight f4 [3, 1690]
000000 6a 14 bb bb f8 b8 a0 bb be e2 44 bc 00 0a b1 bc
       -0.0057092207 -0.0049048625 -0.01201695 -0.021611214
000010 67 df 9b bc ba 54 01 3c c5 df 37 3c d4 58 9d bc
       -0.019027425 0.007893736 0.011222784 -0.019207396
000020 ff d7 91 bb 8c 25 8d 3c 11 56 7f 3c a9 38 d8 3b
       -0.0044507976 0.017229818 0.015584485 0.0065985513
000030 dc bf ce bc fb ac e4 3a 5a bc 3d 3c f5 ba b6 3b
       -0.02523797 0.0017446572 0.011580551 0.0055764862
000040 2a 2b 5a bb e6 32 ad bb 4e 45 73 3c 17 dd 70 3c
       -0.0033289888 -0.0052856086 0.0148480665 0.014701149
000050 a1 ce a9 3b 17 f8 10 bc 3d 4f cf bc 9e 9a 1b 3c
       0.005182103 -0.008848212 -0.025306338 0.009497313
000060 8f c1 5f 3c 39 8a 92 3c f8 2d 4a 3b 22 dc a2 bb
       0.013656988 0.017888175 0.0030850153 -0.0049700895
000070 1a ec 89 bc 2f eb 41 3c dc 94 9f bc ce a8 05 3c
       -0.016836215 0.011835857 -0.019480161 0.008157922
000080 33 64 6e bc 2c b8 f6 bc 33 2f c9 bc c2 1c f2 3b
       -0.014550257 -0.030117117 -0.02455864 0.007388682
000090 63 a3 04 3c d7 67 c9 3b 2c 37 09 3c 49 06 0f 3c
       0.008095595 0.006146412 0.00837497 0.008729526
0000a0 13 93 70 3c 15 b8 54 bc 96 14 c7 3b 19 56 3e bb
       0.014683503 -0.012983342 0.006075452 -0.0029043017
0000b0 60 7a ee bb 39 7a d2 ba d1 06 74 bc f3 4d 8b 3c
       -0.007277772 -0.0016058154 -0.014894203 0.017004943
0000c0 4b d7 e5 bb 24 9c f4 3b 1e e9 bf bc ff 34 42 bc
       -0.0070141903 0.0074649025 -0.023426589 -0.011853456
0000d0 c4 ff db 3b 4e 9e 1c 3c 33 61 5c 3c 6c af 43 bb
       0.0067138392 0.009559227 0.0134509085 -0.0029859198
0000e0 57 36 99 bc f0 c1 ba ba 39 f4 15 bc 0a 58 0c bc
       -0.01870267 -0.0014248472 -0.0091524655 -0.008565912
0000f0 10 c7 c0 bb cc 1a 06 3c 19 a8 a1 3c b0 71 67 bc
       -0.005883105 0.0081851 0.019733476 -0.014126226
000100 70 56 ab 3c 5e 12 6a 3b 94 b4 3e bc 21 64 9d 3c
       0.02091524 0.0035716514 -0.011639733 0.019212784
000110 46 54 9d 3c a7 81 2a 3c de 4a f1 3b 73 31 04 bc
       0.019205224 0.010406888 0.007363661 -0.00806843
000120 96 bf c0 3c cc 7f c8 3c 43 af 28 bc 6d 14 a1 b9
       0.023528855 0.024475 -0.010295692 -0.0003072353
000130 b1 a1 29 ba cc 7d 9e bc 35 80 32 bc 5b 77 ca bb
       -0.0006470932 -0.019347094 -0.010894825 -0.006178779
000140 10 c0 3e bc 7a 64 90 bc fa 11 28 3c 03 cb 96 bb
       -0.011642471 -0.017626036 0.010258192 -0.0046018376
000150 0f 8b 72 3c 6a 3b 3d 3c 03 ef c2 3c 9f b8 b0 bb
       0.014803662 0.01154981 0.02379561 -0.0053931023
000160 b4 f3 79 bc 8c 1c 48 3c 5c 99 eb bc e6 48 a4 bc
       -0.015255857 0.012213837 -0.02875965 -0.020054292
000170 3b 9c 29 3a a6 da bf bc 45 99 33 3c d5 bd 54 bc
       0.00064701185 -0.02341969 0.010961835 -0.012984713
000180 e3 c7 31 bc 0c ed be 3c 35 2c ab bb 5b 0b d7 bb
       -0.010850879 0.023306392 -0.0052237757 -0.006562633
000190 a5 a7 28 3c af 3d be bb 28 5f d2 bc 62 56 8d 3b
       0.010293876 -0.005805693 -0.02568014 0.004313276
0001a0 5a 0f 88 bc d9 ad 84 bc 38 c7 06 3c 93 d8 91 bb
       -0.016608883 -0.016196178 0.008226208 -0.0044508665
0001b0 f7 1e af 3a 15 2e 86 bc f9 df 97 bc 1d d3 b7 3b
       0.0013360669 -0.016379395 -0.018539416 0.0056098835
0001c0 3c c1 ec bb 82 b3 73 3c 0d 44 96 3b 27 c4 bb bb
       -0.007225184 0.014874341 0.004585749 -0.0057301703
0001d0 9d 95 c6 bc b1 fd 49 ba 5c c5 88 bc 1e fd 0c 3c
       -0.024241263 -0.00077053445 -0.01669567 0.00860527
0001e0 ee f6 d3 bb ac 56 68 bb c9 3f 7d 3c 72 39 64 bc
       -0.0064686453 -0.003545205 0.015457102 -0.013929712
0001f0 6b 62 95 bc ed 07 51 3c 95 b7 0f 3c 49 02 6d bc
       -0.018235406 0.012758237 0.008771797 -0.014465877
000200 c3 0a 57 3c e9 e2 61 3c 5c 81 12 3c c0 4f 23 3c
       0.013125124 0.01378701 0.0089419745 0.009967744
000210 6e 64 58 3b 78 d1 b8 bc 9d 50 52 3c 55 b2 aa 3c
       0.0033018845 -0.02256082 0.0128366025 0.020836988
000220 d4 5c be bc cb 34 6b 3c f8 23 97 3c c8 e7 b6 bc
       -0.023237623 0.014355849 0.018449768 -0.022327319
000230 45 a1 14 3c 3a b4 42 bc dd 93 e7 bc f8 03 d7 3b
       0.009071653 -0.01188379 -0.028268749 0.0065617524
000240 8e 3d 92 bc a8 a3 c6 bc 51 47 8a bc 5b de 3b bb
       -0.017851617 -0.02424796 -0.01687971 -0.002866647
000250 14 54 91 bc eb 9e 9d 3c 08 42 81 bb 59 42 9b 3c
       -0.017740287 0.019240817 -0.003944639 0.018952535
000260 55 a8 12 bc 35 d3 a8 bc ed d0 d4 bc 09 3a bd bc
       -0.008951266 -0.020608524 -0.02597853 -0.023098962
000270 67 79 de 3b 6e 97 e6 bb 06 15 94 bc 97 5f 2a bc
       0.0067893746 -0.007037095 -0.018076431 -0.010398767
000280 e4 ce 0e bd fc 12 31 bc e2 0b 7e bc 33 34 29 3c
       -0.034865275 -0.010807749 -0.015505763 0.010327387
000290 da 8a 20 3c 7e bb 8e 3c c5 3d af bc ad 41 26 3c
       0.00979873 0.017423388 -0.021391759 0.010147494
0002a0 0a 01 09 bb 59 0c c9 ba d2 7b 98 3a fc f0 99 3c
       -0.002090516 -0.0015338763 0.0011633581 0.018791668
0002b0 78 30 c0 bc a0 40 30 bc a2 94 03 b9 de 4b bb bb
       -0.023460612 -0.010757595 -0.00012548504 -0.005715831
0002c0 1e 98 a9 bc 8e d4 78 3b b4 82 b8 bc b8 d3 c0 3b
       -0.020702418 0.003796849 -0.022523262 0.005884614
0002d0 ea f9 a6 bc 7f 89 10 bc 79 5c a1 3c df 1b 2c bc
       -0.02038284 -0.008821844 0.019697415 -0.010504692
0002e0 c7 fe a6 bc 75 4d f5 3b ed 4d 2c 3c a4 2c 4d 3c
       -0.02038516 0.0074860402 0.010516626 0.01252285
0002f0 09 b3 87 bc ba a7 24 3c 15 ae ff ba d5 18 90 ba
       -0.016564863 0.010049755 -0.0019506837 -0.0010993729
000300 3a 07 14 39 1c ed 1b 3c fc 57 44 bc 60 b1 b9 3c
       0.00014117072 0.0095169805 -0.011983868 0.022667587
000310 62 b9 6d bc 28 77 33 bc a3 45 68 bc 61 45 70 3c
       -0.014509531 -0.010953702 -0.014176759 0.014664979
000320 3a 2d 49 3a f3 bb 0b bc b8 27 76 bb 30 c1 72 bc
       0.0007674281 -0.008528697 -0.0037560295 -0.014816567
000330 c1 6f 53 bc d5 2e 8d bc ae 40 07 3c 9e f9 3b 3c
       -0.012905062 -0.017234245 0.008255167 0.011473088
000340 af 6a 9c 3c 04 88 9f 3c a0 18 a5 3a cd 26 e7 bb
       0.01909384 0.019474037 0.001259584 -0.007054186
000350 01 74 c5 3b 10 8e e4 3b 54 68 3c bc 8b a8 a1 bc
       0.0060257916 0.006974943 -0.011499483 -0.019733688
000360 d3 db e1 bb 79 14 bd bc db 21 8a 3c 06 4c a9 3b
       -0.00689266 -0.023081051 0.016861847 0.0051665334
000370 0e db 2e bc 3c 3f 8f bc 4c a4 08 bc d0 57 03 bc
       -0.010672344 -0.017486207 -0.008339953 -0.008016542
000380 47 68 0b bc 76 6d 97 bc 3e de 4c 3c 4b 0f 1a bc
       -0.008508748 -0.018484812 0.012504159 -0.00940306
000390 ca ea 9e bb bd 58 9f 3c 82 11 2f 3c 0e 8b b8 bc
       -0.0048497664 0.019451493 0.0106853265 -0.022527244
0003a0 22 aa ad 3c e6 bc a0 bb 83 8a 19 3b f4 f5 5c 3c
       0.02119929 -0.004905331 0.0023428507 0.013486374
0003b0 09 0d 92 3c 07 66 1f 3c a8 33 3b bc 77 66 87 3c
       0.017828481 0.009728915 -0.01142589 0.016528351
0003c0 dd 6e 0f bc d8 2f a3 3c 8e a1 ae ba 77 6a 94 bb
       -0.008754459 0.019920275 -0.0013323294 -0.004529293
0003d0 fe d0 6d 3c 22 70 af 3b 8e b9 b1 3a 7f 4d 3e 3c
       0.01451516 0.0053539434 0.0013559328 0.011615156
0003e0 be ee 90 3c e7 39 36 3b 25 43 66 3c cc 14 d3 3b
       0.017691966 0.0027805509 0.014054094 0.006441688
0003f0 11 7e 0d 3c 5a 6a 9a 3b 3b d6 cf bb 60 bf bc bc
       0.008636014 0.004712385 -0.006342677 -0.023040473

classifier.1.bias f4 [3]
000000 33 3f 58 bc f4 e6 36 bc 9d 2e 6e bc
       -0.013198662 -0.011163462 -0.014537481
