models/05_TinyVGG_lr_0.01_bz_32_hdu_10_eps_10___time_412.14.pth (torch, 37230 bytes, 10 tensors)

conv_block_1.0.weight f4 [10, 3, 3, 3]
00000000: a882 fc3d 5d83 25be 344e 9dbd d967 173e
00000010: 4e67 35be 8651 053e 5273 fc3d ee41 b7bc
00000020: 3086 a6bd b6ef e0bc fbf1 04bd d8f9 bdbc
00000030: 7906 9b3d cc85 523c d4eb cbbd a7b1 6abe
00000040: 89a2 0c3e 1f29 e23d d4ce dd3c 4029 b73d
00000050: d8e1 1abe 16c3 4fbe 49bf 1abe d1cf 21be
00000060: e81b 703d 63b0 55bc b2e8 9c3b 5b7a 78be
00000070: d3e1 b3bd 2935 ccbd 8462 d6bd b49b 073d
00000080: 883a 98bd ce6d b4bd 46ad 04be bad8 ac3d
00000090: 2002 883d 62db 57be 5f5e 7ebe 297f f8bd
000000a0: 916d e1bd 2210 0ebe 14ad fdba a2bf 7f3d
000000b0: da55 fe3d f5b1 e53d fe5d 29bd 4489 b33d
000000c0: 49f9 da3d 3111 4fbd 31e5 54be e204 c13d
000000d0: c282 e8bd c35c 79bd 9ae6 78be f65e b83d
000000e0: 6093 ad3c 9db8 8ebd 5dbf 8fbd 7658 e83d
000000f0: 3355 84bd a4dd 8b3c 1593 33be 4856 25be
00000100: ac69 1abe bcc1 48bc 766b 823d 52df dabd
00000110: 5cdf 3b3d 2174 dd3d 12b5 973d 37eb 6bbd
00000120: b16d 58be 945b dbbd 3418 87bd bf02 933d
00000130: 45f9 233c 1642 0ebe f85b 24be ed31 163e
00000140: 2e0d 48bd f254 833e 6717 003c 046d e73b
00000150: 621e e23d b75f 863d 6928 dd3c 0cac d0bc
00000160: c0be dc3d b6e3 ac3d a992 07bd 926b 0a3d
00000170: 9aa1 0d3e e3a6 113e b712 65bc 76e5 f63d
00000180: 3247 8d3c 4375 08be c1ec 7c3e 59a8 f4bc
00000190: f5af 603e ef81 0f3d 3d20 003e 4789 b93d
000001a0: 0781 f53d 7a5e 103d 013a b33c 9910 8b3d
000001b0: 5989 65bc 29c8 e7bd 30cb 32bd 9018 6cbc
000001c0: 4bd9 593d 6816 09be d2cf b5bd 0908 fb3d
000001d0: eac4 34be 0a33 76bc c49b edbc c357 193d
000001e0: df60 43be ae84 2c3e a9ec 31be 22b2 1bbe
000001f0: f0c1 2abc 6cee e7bd e84b 83bc 424e 10bd
00000200: 5bd8 51bd 183f 8cbd 51d0 ac3d f648 8b3b
00000210: f23a 21bc f8d4 ccbd 21ed cbbd 26b9 cbbc
00000220: ae32 853d 0f86 07be 0e75 63be 1019 2c3d
00000230: 7d86 63bd cbda 493c 95e2 1cbe 19e5 84be
00000240: 14e4 173e bf14 4cbe 06eb d83d 14ae 8b3d
00000250: 0fbc d03c 73e6 a8bc 8ee3 45be 878b b3bd
00000260: e5f7 8abd 212a 1f3e 6cad c139 8ad6 c43d
00000270: 6bc8 fcbd 4a70 f9bd 34b0 eabd 234f 6fbe
00000280: 774b 893d a2b1 29be d42f 2abe d7b2 b5bd
00000290: 1601 c63d 25ab 2fbe 173a 5cbe 5880 963d
000002a0: 4b71 78bd c0e5 63bd 6a0d d7bd 6c09 1abe
000002b0: 4ab9 69be d115 7fbe 5599 53be d94c 9e3d
000002c0: 026b 63be 0dd9 37be 8f8e e6bd 41ee edbd
000002d0: aeb7 873d 1c46 5bbe 19de 0cbe a809 7cbe
000002e0: 4c19 8e3c d9ce 92bd 0029 24bd 319b 8fbe
000002f0: b454 c1bd dfed 9fbd 51bd 883c 36a4 a03d
00000300: 105c d6bd f333 1d3d da17 ca3c b4ac 3d3d
00000310: 2f63 4abe 9074 2dbd d696 a5bd 7100 213d
00000320: b6ae 92bb 1589 c3bd eba6 30be e651 9abd
00000330: 1b3c ddbc d941 95bd f356 bcbc ce9e eb3d
00000340: 2a51 eebd 1d37 b8bd 0424 3abe 1e1d 1fbe
00000350: 5322 293d 8de9 16be 75a1 db3d 85a1 4dbe
00000360: 7387 45be 2f74 f9bb eeb5 5bbe f6a9 84be
00000370: 3820 7fbe fedb 8c3d c5cd 46bd ae41 ad3d
00000380: 004a 82be fb3f 14bd 760b 93bd ed2b 1bbe
00000390: 331a b7bc f990 dfbd 7a42 003e b544 5dbe
000003a0: d314 c23d bbf0 7dbe ea6e f5bd e915 ed3d
000003b0: ddd1 51be a323 7e3d 7677 8bbc b76e eabd
000003c0: 2d3e d63c 587e 1e3c 1e56 e33d 353e ba3d
000003d0: 10af 86bd 514b 7ebd cb6a d93d ea3e 5cbe
000003e0: 26ea 333d 545d 12be cb61 1e3e f0bd bd3d
000003f0: 645a 40be fe65 39be bd0d 113c 85a3 b3bd
0.12329608 -0.16163392 -0.07680932 0.14785708 -0.17715189 0.1301938 0.12326683 -0.022370305
-0.08131063 -0.027458053 -0.032457333 -0.023190424 0.07569594 0.0128492825 -0.0995709 -0.22919331
0.13733877 0.110429995 0.027076162 0.08943415 -0.15125215 -0.20289263 -0.15112032 -0.15801932
0.058620363 -0.013042542 0.0047884816 -0.24265425 -0.08783307 -0.09971077 -0.10468009 0.033107474
-0.07433039 -0.08810006 -0.12956724 0.08439775 0.0664103 -0.21079782 -0.24840687 -0.12133629
-0.11007226 -0.13873342 -0.001935395 0.062438615 0.12418719 0.11215583 -0.041349404 0.08766416
0.106920786 -0.050553504 -0.20790555 0.094247594 -0.11353065 -0.06087948 -0.24306718 0.09002487
0.021188438 -0.06968806 -0.070189215 0.113449976 -0.06461563 0.01707346 -0.17536576 -0.16146195
-0.15079373 -0.012253221 0.06368153 -0.10687126 0.04586731 0.108131655 0.07407583 -0.057597365
-0.21135594 -0.107108265 -0.06596413 0.07178258 0.010008161 -0.13892397 -0.16050708 0.14667483
-0.048840694 0.25650746 0.00781808 0.007062556 0.11040951 0.06561225 0.026996808 -0.025472663
0.1077857 0.0844187 -0.03309885 0.033793993 0.13831177 0.14223818 -0.013981513 0.12055485
0.017245863 -0.13325982 0.2469969 -0.02986543 0.21942122 0.035036024 0.12512298 0.09059387
0.11987501 0.03524635 0.021878244 0.06790275 -0.014009797 -0.113174744 -0.043650806 -0.014410153
0.053185742 -0.13387454 -0.08877529 0.12257392 -0.17653242 -0.015026817 -0.029004939 0.03743721
-0.19079922 0.16847488 -0.17375435 -0.15204671 -0.010422215 -0.11324772 -0.016027406 -0.035230882
-0.051231723 -0.06847972 0.08438171 0.004250641 -0.009840714 -0.10001558 -0.09957338 -0.02486856
0.06503807 -0.13234733 -0.22212622 0.04201609 -0.05554818 0.012320231 -0.15320809 -0.25956038
0.14833099 -0.19929789 0.10591702 0.06820312 0.025480298 -0.0206177 -0.19325086 -0.08766847
-0.067855634 0.15543415 0.00036941038 0.096112326 -0.12342914 -0.121796206 -0.11459389 -0.23370032
0.06703847 -0.16571668 -0.16619807 -0.088720016 0.09668176 -0.1715513 -0.21506535 0.073486984
-0.06065492 -0.05563903 -0.105006054 -0.15042657 -0.22824588 -0.24910666 -0.2066396 0.07729501
-0.22208789 -0.17953892 -0.1125766 -0.11617709 0.06626831 -0.21413463 -0.13756599 -0.24613059
0.017346047 -0.07168359 -0.040078163 -0.2804809 -0.09439984 -0.07809042 0.016691836 0.07843821
-0.10466778 0.03837962 0.024669576 0.04630728 -0.19764398 -0.04234749 -0.0808541 0.03930706
-0.0044763936 -0.09547631 -0.17251174 -0.07535152 -0.0270062 -0.0728795 -0.02299068 0.11504899
-0.116365746 -0.08994887 -0.18177801 -0.15538451 0.0412925 -0.1473753 0.10724155 -0.20081146
-0.19289951 -0.007612727 -0.2145612 -0.2591092 -0.24914634 0.06877898 -0.04853608 0.08459793
-0.25447083 -0.03619383 -0.071799204 -0.15153475 -0.02235136 -0.10916323 0.12525359 -0.21608241
0.09476628 -0.24798863 -0.11984046 0.11576445 -0.20490213 0.062045705 -0.017024737 -0.114468984
0.026152695 0.009673677 0.1110041 0.09093896 -0.06576359 -0.062083546 0.10616072 -0.21508375
0.043924473 -0.14293414 0.15466993 0.09264743 -0.18784481 -0.18105313 0.008853373 -0.08771423

conv_block_1.0.bias f4 [10]
00000000: 857e e6bd 288e f3bd f6b4 61be 4aae 913d
00000010: ff2e 903e a53a 2cbe 6cc1 94bc 82e6 7dbc
00000020: 8864 58be 6f91 693e
-0.112546004 -0.118923485 -0.22041687 0.07113321 0.28160855 -0.16819246 -0.018158637 -0.015496852
-0.211321 0.22809385

conv_block_1.2.weight f4 [10, 10, 3, 3]
00000000: 084d ad3d 510a a43d e9e0 9d3d 6184 d23d
00000010: 2706 e8bb 0297 003e bffc 9b3d d519 993d
00000020: 3a33 f83b 273b 583b 23ac 733d a6bd 2c3e
00000030: 62c6 98bc e873 87bc 8fb7 a43d 925a f73c
00000040: 5c99 fc3d 623d 00bd 11aa 7d3d 74d2 3bbc
00000050: 9119 883d 699c c03c 2910 85bd 5c5c 2e3d
00000060: 59c4 2fbd 15c0 bf3b 2535 50bd fc37 1dbd
00000070: c88e 4bbc 6d40 eabc 0ab6 bfbd 6fb9 42bd
00000080: 5e60 c7bd efea 11bd ac5a f2bd e671 0cbe
00000090: 820f 1e3e 4a93 333d 1768 0d3e a548 023e
000000a0: f269 fd3d 1886 543e e276 7d3e 2898 a93d
000000b0: 0846 d33d 8df4 2f3e 7b36 8bbd 283e 073d
000000c0: 9a3b 2a3c fc71 abbc bf07 97bd dc3b 25be
000000d0: f41e bfbd 420e dfbd d341 ba3c 1e5a df3c
000000e0: 7c3b fdbb 6923 49bc 7d29 59bd 03d5 483d
000000f0: 3faa 213e ae33 02bd 4458 913d 0751 eebc
00000100: f0dd 673d 2163 c53c c92f 85bc 4375 ad3d
00000110: ab61 7b3d 9149 223e 2cd2 923d 0da2 cc3d
00000120: 8c8f debb 147d 373e be47 4c3d c865 243c
00000130: a530 25bd 838e 38bd e11b 07be d8f0 843d
00000140: 9b70 56bd 21bf 863e c4c5 483d 89ff 743d
00000150: f3f3 543e c421 be3d 4288 a93d 1304 413e
00000160: 3aeb 983d 08d9 663e e533 5c3c 9c3f c23c
00000170: 6de9 273d 0886 20bd d125 f23c 2bed c7bb
00000180: 17d1 45bd 516a 87bc f99f 0dbe 2e56 efbd
00000190: 783e a9bd 6b48 3abd 75d3 b5bd 59fb 4b3d
000001a0: 40eb 5cbd 2eb8 00bd 69ed 5e3d 7ea9 c1bd
000001b0: 3e3f d1bc 228b 913b 3c19 f13c 975c 09be
000001c0: cd43 dabd 08a2 993c 8b06 29be f5db 3dbd
000001d0: 8a02 363d 8fd5 293c f4e9 8dbd 29f1 24be
000001e0: 9aee 93bd 1410 0ebe 842d eabd 88de 06be
000001f0: d9a0 26be c248 42bd ce0e 32be a2f0 77bd
00000200: db4a c0bd 9001 86bd 9630 00be 533f 91bd
00000210: 8e7b bdbd a4a6 bbbc 34a8 c53a eb52 293e
00000220: 0221 ae3d 65ec 423d 206a 89bc 7753 053e
00000230: 4846 00be 0397 7a3d d04c 10bd ba82 1ebe
00000240: 31d8 52bd a9db e6bd 6847 0cbe 3aed 06bd
00000250: 04eb e93d c946 173d 45cb 253d 619c 073e
00000260: 8751 813d 9ea1 393d 3783 0dbd 6664 70bd
00000270: 7041 99bd 718a 0ebe e7e9 363d c77b 58bd
00000280: 326c 6fbd 32ae c5bd f9ea 72bd b6a8 2e3d
00000290: df13 f0bc fee9 323c f424 cabd e430 49bc
000002a0: 774c 873c 4c2c d1bc 1bde 8e3d f19e b5bb
000002b0: 4036 12bd f3f6 01be c7a6 5fbd 11ac 67bd
000002c0: 7ff1 b3bc 48e3 cdbb 6a18 c23c 3cd9 c5bd
000002d0: 0545 14be d290 8ebd 63ee 88bc 7912 bebd
000002e0: 4b05 d0bd 469e ce3c e099 e5bd 57b2 aebd
000002f0: a639 163d 84dc 213d b8bd 10be 578d 21bd
00000300: 7bd1 733c ae2b 503d 91d4 a03c c128 463d
00000310: f3fb e63c edfc 95bc f7ef e2bb ef33 e23c
00000320: 0af4 1abd eafb 0f3e cd48 183d 98b8 97bd
00000330: ee86 083d cd14 f33c e65d 22bd fe6d d73c
00000340: 2ded 9bbd d3b8 693c b121 363d f3d5 22be
00000350: 1995 1ebe 6fa6 713c 9ade b7bd fed8 b6bd
00000360: 9ab4 97bd 8d11 f03b ebe9 9fbd bde4 a1bd
00000370: 2486 05be 3513 91bc faeb 20bd 7150 19be
00000380: 856a b7bd b6ef 4bb7 f35b 9e3c 058b 13bd
00000390: 90ba 773d e24a b0bd 5097 15bd 0798 be3c
000003a0: e194 04be f353 ff3b 244c 8e3c 2e4c 1bbe
000003b0: 1a10 0bbe d0af be3c ba78 8dbd cec5 28bd
000003c0: 0afe d9bc 5bb9 3cbd 8958 0cbe 82ea a7bd
000003d0: 8099 38bd 1a48 25bd d01e b6bd ae62 fdbd
000003e0: 6252 14be d077 843c fe61 ecbd 6d34 f8bd
000003f0: 736a 5c3d 9785 2cbc 63f7 853c 7e41 123d
0.08461958 0.0800978 0.07708914 0.102791555 -0.0070808115 0.12557605 0.07616567 0.0747563
0.007574466 0.0032994242 0.059490334 0.1686922 -0.018649284 -0.01653476 0.080428235 0.030194554
0.123339385 -0.03130854 0.061929766 -0.01146375 0.066455014 0.023512082 -0.06497223 0.04256855
-0.04291186 0.0058517554 -0.050831933 -0.03838347 -0.012424178 -0.028595174 -0.09360893 -0.047540125
-0.097351775 -0.03562444 -0.118337005 -0.13715324 0.15435603 0.043841638 0.13809238 0.12723024
0.12373723 0.20754278 0.24752381 0.082809746 0.10316092 0.17183132 -0.06797501 0.03301826
0.010390187 -0.020928375 -0.07374524 -0.16136116 -0.09332076 -0.10891391 0.022736466 0.02726465
-0.0077280384 -0.012276509 -0.053018082 0.04903127 0.157876 -0.031787567 0.070969135 -0.029091371
0.05660814 0.02409512 -0.016258137 0.084696315 0.06137244 0.15848376 0.07168993 0.09991846
-0.0067920145 0.17918807 0.049873106 0.010034032 -0.040329594 -0.045057785 -0.13194229 0.0649125
-0.052353483 0.26317695 0.04901673 0.05981401 0.20796184 0.09283784 0.08277942 0.1884921
0.07466741 0.22543728 0.013440107 0.023711972 0.040994097 -0.039190322 0.029559048 -0.0061012707
-0.048295107 -0.016530188 -0.13830556 -0.11686359 -0.08263868 -0.04547922 -0.08878223 0.04980025
-0.05393529 -0.031425647 0.05442563 -0.09456156 -0.025542852 0.0044416348 0.029430978 -0.13414226
-0.10657463 0.01875402 -0.16506402 -0.046352345 0.044436015 0.010365858 -0.06929389 -0.1610762
-0.07223244 -0.13873321 -0.11434463 -0.13170826 -0.16272296 -0.04743267 -0.1738846 -0.06053222
-0.093892775 -0.06543267 -0.12518534 -0.07092156 -0.09252082 -0.022906609 0.0015080036 0.16535537
0.085023895 0.047588725 -0.016774237 0.1302012 -0.1252681 0.061179172 -0.035229504 -0.15479556
-0.051475707 -0.112723656 -0.13699114 -0.03294108 0.11421779 0.03693274 0.040477056 0.13243248
0.06314378 0.045320146 -0.034548964 -0.058689497 -0.07483184 -0.13919999 0.04465666 -0.05285242
-0.058452792 -0.09652366 -0.05930612 0.042641364 -0.02930635 0.010920046 -0.098703295 -0.012279723
0.016515953 -0.025533818 0.06975957 -0.005542629 -0.035696268 -0.1269186 -0.05460241 -0.05656058
-0.02196574 -0.0062831976 0.023693282 -0.09660575 -0.14479454 -0.06961216 -0.016715234 -0.09280867
-0.101572596 0.025221955 -0.1121099 -0.085301094 0.03667607 0.03951694 -0.14134872 -0.039441433
0.014881487 0.050822906 0.01963261 0.04837871 0.02819631 -0.018309081 -0.0069255787 0.027612654
-0.03783039 0.14060941 0.037178803 -0.07408255 0.033331804 0.029673005 -0.03964033 0.026297566
-0.07613597 0.014265257 0.044465724 -0.15901928 -0.15486564 0.0147491535 -0.08978005 -0.08928107
-0.07407494 0.007326311 -0.07808288 -0.079049565 -0.13039452 -0.017709354 -0.039287545 -0.14972092
-0.08955864 -1.2155555e-05 0.019330954 -0.03602125 0.060480654 -0.08608033 -0.036521256 0.023265852
-0.12947418 0.00779199 0.017370291 -0.15165779 -0.13580361 0.023277193 -0.069077924 -0.041204266
-0.026610393 -0.046075206 -0.13705648 -0.08199026 -0.045068264 -0.040351965 -0.08892596 -0.12372337
-0.14484552 0.016170412 -0.11542128 -0.121193744 0.053812455 -0.010529897 0.016353315 0.03570699

conv_block_1.2.bias f4 [10]
00000000: 2d57 073c 0282 4cbc 36af 5abc a998 c6bd
00000010: 0969 efbc df01 1b3d 7068 03bd c95e debd
00000020: 7951 51bd 9516 ecbd
0.00826053 -0.012482168 -0.013347438 -0.09697086 -0.02922489 0.03784358 -0.03208202 -0.108579226
-0.05110309 -0.11527745

conv_block_2.0.weight f4 [10, 10, 3, 3]
00000000: 7b58 a7bd 9ef1 283d 60b8 563c 6725 8b3d
00000010: cf9c 33bd eea2 c9bd c962 63bd 7fb3 9a3d
00000020: df65 ebbd 9d8c 9a3d eca8 afbd c389 a8bd
00000030: b5d2 afbd d468 c3bd 9588 d13d bca5 a23c
00000040: 00bb 58bb cfd0 b53d 4747 a23d 1dc7 bfbd
00000050: 1cce df3c b099 653c b8ad 5c3c c4fe 82bd
00000060: 55cf 913d 0014 7a3c e4dd aebc e66d 363d
00000070: b967 86bd 3e88 c3bb dc87 3fbd e819 00bb
00000080: 29ae cbbd b487 653d 6748 f83c 7895 82bc
00000090: 6970 d5bd 7099 12bd 07de 3fbd 78e9 4dbd
000000a0: 75d4 9abd fb1a a93d d7af be3d 1341 ce3d
000000b0: e4f5 a7bc e926 c3bd 9624 2b3d 4064 603b
000000c0: 501f 0b3c 5a1a b0bd c8c3 8b3c 0402 c3bd
000000d0: a5e2 813d 14f9 5bbd d1ef ba3d e097 6dbb
000000e0: a57d d7bd 8cb9 bcbd 6049 71bd acce b93c
000000f0: 1aca 053d 62e0 a9bd 7572 78bd 4dd9 8d3d
00000100: f8b5 3e3c dab6 5cbd 9894 86bc 1351 8f3d
00000110: 9425 a7bd 0afb 213d 40bf e63a 2646 6c3d
00000120: 387b 1a3c bb81 a6bd 5a22 5c3d 9e6d 5d3d
00000130: e0bf 443b 8033 4e3a 90c9 9ebd 190f 843d
00000140: 76a2 56bd e211 12bd 932a 883d c07a bdbc
00000150: 7828 45bd 484e 28bd c032 793b 8a74 213d
00000160: f0f9 e5bc 8aa3 aebd 20d0 80bb 8008 0fba
00000170: 2a5d bcbd 3225 02bd cf0f 9dbd 76d2 3b3d
00000180: c8c5 933c eef4 d4bd c149 7cbd be57 4dbd
00000190: 187d 1cbc cd81 b43d 40df 8a3b a143 c8bd
000001a0: 6ab1 d6bd d6e0 55bd 6f9c ac3d e00d 6dbd
000001b0: db93 8e3d f8f7 c5bd 43b4 a53d 0cc0 91bd
000001c0: 24d9 ef3c a483 18bd 8823 3ebd d4ce 12bd
000001d0: a5d8 bbbd 4055 333c 2a9d cfbd 847b 6abd
000001e0: b873 c3bd 0e3e 0bbd 41fe cf3d db30 bc3d
000001f0: 6773 8e3d 2c67 b23c 881f 8dbd 8c66 b5bc
00000200: ccde b43c e286 5b3d 65ac a63d c50b 953d
00000210: 938d 943d d25e 05bd 7885 09bd 746a fb3c
00000220: f33b a93d 30d6 51bc c2bd 093d 3a26 0fbd
00000230: 7c73 3bbd ab36 bb3d 911b 863d 8c5f f73c
00000240: 486c d0bd b74d d33d 62a4 afbd 4056 6ebd
00000250: 78d9 0f3c 80db 83bc e4d6 b0bd 3806 b7bd
00000260: 606d 68bc ee26 83bd 8c50 68bd 6a85 92bd
00000270: 71b4 9c3d 0b80 bb3d a0c4 89bc 7794 d23d
00000280: 7247 83bd 3067 273c 2c5f 2bbd 7a8e 6c3d
00000290: 76ee 54bd e7ed b33d 9676 793d 084c c6bd
000002a0: c201 6d3d 8027 ecba ce19 44bd 2b30 3abd
000002b0: 24a7 d0bd b6ee 87bd 3442 d23c 30e7 ebbb
000002c0: ba95 663d a8af a2bd b6dd 5d3d 3bdd aabd
000002d0: 10f7 35bd f4ea 4bbe 4f7a 25be f699 0ebe
000002e0: 0c23 f2bc bcfb 3fbd ee3e a4bd 51c2 17be
000002f0: f70e 91bc ce06 223d cc0b fabc c334 1b3e
00000300: 6df8 b73d b424 e83d c9da d13d 3aa6 19bd
00000310: 7798 0e3e ba8e dd3d fb19 003c 07b0 353d
00000320: 2807 90bc 89b4 213d 9310 853d 456a cc3d
00000330: 0c0f bf3d 455a 0abd 2762 37bc b8eb b43c
00000340: c170 24bc 5e33 d23c c07b 2ebe 86a7 15be
00000350: 60ff c6bc ee16 f7bd 82b7 febc d95f 9d3b
00000360: cbc5 f6bd d163 413d 7ba4 fbbd 90f5 223d
00000370: fb4d 29bd 524d 903d 6ecd 9e3d a61b 333b
00000380: 9857 0a3e 1438 6fbd 8427 9dbb d1ef 233d
00000390: 1312 1b3d f4ac 66bd 6443 b5bc 2341 d6bb
000003a0: 1105 1a3e 1759 0f3e 4acb f23d 9bc3 253e
000003b0: fec2 a83d e5bb 663d f979 d73c c87e bfbc
000003c0: eea6 0b3e 3061 a73d 5a2f c8bc 5745 5abc
000003d0: 0e83 6ebd 4bd1 d7bc 6729 7a3d b1eb 0c3e
000003e0: 5cca 3b3d ad72 5d3d 8f05 86bc 22a6 0c3d
000003f0: f727 ce3d 5273 c63d 5278 0c3e 730d de3d
-0.08171173 0.04124605 0.013105482 0.06794243 -0.043850716 -0.098455295 -0.05551413 0.075537674
-0.1149404 0.07546351 -0.08577141 -0.08229401 -0.08585111 -0.09541479 0.10231129 0.019854419
-0.0033070445 0.08877718 0.07923751 -0.0936415 0.02731996 0.014013693 0.013469152 -0.06396249
0.071196236 0.015263557 -0.02134604 0.0445384 -0.06562752 -0.005967169 -0.046760425 -0.0019546691
-0.09945328 0.05603762 0.030307962 -0.015940413 -0.10421831 -0.03579086 -0.0468426 -0.05027148
-0.07560054 0.08257099 0.093108825 0.10071006 -0.020502992 -0.09528906 0.041782938 0.003423944
0.008491352 -0.08598776 0.01706113 -0.09521869 0.06342057 -0.053704336 0.091277726 -0.0036253855
-0.10522012 -0.09215078 -0.058907866 0.022681557 0.032663442 -0.08294751 -0.06065603 0.069262125
0.011640064 -0.05388532 -0.016428277 0.069978856 -0.08161464 0.03954605 0.0017604604 0.057684086
0.009428792 -0.08130213 0.053743698 0.054059617 0.0030021593 0.00078659505 -0.07753289 0.06448192
-0.05240103 -0.035661586 0.066487454 -0.02312982 -0.048134297 -0.04109028 0.0038024634 0.03941778
-0.028073281 -0.08527286 -0.0039310604 -0.00054562837 -0.09197457 -0.031773753 -0.07669031 0.045855008
0.018038645 -0.10398279 -0.061593775 -0.050132506 -0.009551309 0.0881382 0.0042380393 -0.09778524
-0.10483058 -0.052216373 0.08428275 -0.05787456 0.06961795 -0.09666437 0.08091023 -0.07116708
0.029278345 -0.037234917 -0.046420604 -0.035841778 -0.09172181 0.010945618 -0.101373985 -0.0572467
-0.09543556 -0.033994727 0.10155917 0.09189006 0.06955605 0.021777712 -0.0689078 -0.022143625
0.022078894 0.05359543 0.081383504 0.072776355 0.07253566 -0.03256113 -0.03357455 0.03069041
0.082633875 -0.012807414 0.033628233 -0.034948565 -0.04576443 0.091412865 0.065482266 0.030196927
-0.10176903 0.10317557 -0.085762754 -0.058187723 0.008779876 -0.016095877 -0.08634737 -0.08936733
-0.014186233 -0.064039096 -0.05671744 -0.07154353 0.07651604 0.09155282 -0.01681739 0.10282224
-0.064101115 0.010217473 -0.04183881 0.057753064 -0.051985227 0.08785611 0.060904108 -0.096824706
0.057863005 -0.0018017143 -0.04787617 -0.045456093 -0.101881295 -0.066373274 0.025666334 -0.0071991906
0.056295134 -0.0794366 0.05416652 -0.083429776 -0.04442507 -0.19913846 -0.16159938 -0.13925919
-0.029557727 -0.046870932 -0.080198154 -0.1482022 -0.017707331 0.03955727 -0.030523203 0.15156846
0.0898293 0.113351256 0.10246808 -0.03751204 0.13925348 0.108182386 0.007818694 0.044357326
-0.017581537 0.039478812 0.06497302 0.09981207 0.09329042 -0.033777494 -0.011192835 0.022085056
-0.010036648 0.02565926 -0.17039394 -0.14614686 -0.024291694 -0.1206492 -0.031093363 0.0048026857
-0.12049445 0.047214333 -0.122872315 0.039784968 -0.041334134 0.07045998 0.07754026 0.0027329712
0.13509977 -0.05840309 -0.0047959704 0.04002363 0.037859034 -0.056317285 -0.02212686 -0.0065385266
0.15040995 0.13998829 0.118551806 0.16187899 0.08240317 0.056331534 0.026303278 -0.023375884
0.13637897 0.08172834 -0.024436641 -0.013322196 -0.058230452 -0.026344916 0.06107464 0.13761784
0.04584728 0.05406444 -0.016360072 0.034338124 0.100662164 0.09689964 0.13717774 0.10842409

conv_block_2.0.bias f4 [10]
00000000: 9d66 94bd b1ca cbbd e44d b83d 7dcd 0dbe
00000010: 1b8c 89bc 86cf 91bd 8bd8 fa3d f91b 0fbe
00000020: 5800 76bd 9233 adbc
-0.072461344 -0.0995077 0.089992315 -0.13847919 -0.01679044 -0.0711966 0.122483335 -0.13975514
-0.06005892 -0.021142755

conv_block_2.2.weight f4 [10, 10, 3, 3]
00000000: d886 2d3c 5650 743d 095a 9dbd 30dd 9c3c
00000010: f074 9a3c 5e76 a8bd 5881 973c 343a a53c
00000020: 2bfc 8e3d 9a35 4ebd a00f adbd 4a32 23bd
00000030: b050 1e3c 3a24 063d b674 75bd c982 9e3d
00000040: c683 15bd 5f73 8a3d 5363 bdbd 81d8 fcbd
00000050: fc77 e0bd f6aa cbbd d9cd dfbd d705 f43c
00000060: de0a 13bc 19fb 00be bc62 e6bc 3d08 b23d
00000070: 15e9 b03d ae4c b3bd fed5 c3bd 340b bc3c
00000080: 4621 353d b0ec 90bb 69fd c43d 7ada 0dbd
00000090: 59a1 89bd b8ba eebc f921 a63c ba0b c8bd
000000a0: a354 8ebd 9ee6 113d 44e4 94bd cdfd 5f3d
000000b0: 0d9e bcba 7dae c7bd 08c2 93bc b467 d53c
000000c0: 2464 16bd 0045 7ebc 1a97 563d 0089 4fbc
000000d0: 1512 cabd d5b6 b23d 7b6b 53bc 8d37 03be
000000e0: 1ac6 97bd 8e93 a73c e43c a0bc a43c ddbd
000000f0: 32ae c7bc 6929 37bc 6caf 1d3d 5a5c f6bc
00000100: 3cdf 85bd 3528 3d3d f01b 7b3c 0762 b9bc
00000110: a62d b5bc b4c2 ee3d e27d b63d 75cc dc3d
00000120: 7247 24be d3e2 0abe 53b1 7ebb 67d8 33bd
00000130: bd3d 87bd 663b a4bd 0294 cdbc bc14 42be
00000140: 62d7 4bbe a0bd b0bd 4287 7ebd 950b 16bd
00000150: f400 663d 2221 0ebe 894f d6bd b55b 15be
00000160: e749 2dbd ee8e d7bd 5549 cd3d 3ea6 95bd
00000170: 82dc d3bd ff42 c43d f88f 01bc e5e1 933d
00000180: 9cd2 b13c cf22 d43d 409b e7bc 9608 9dbd
00000190: d10f 813d 063e 573d 488e e8bc df4e a93d
000001a0: 502e 963c b37d 8f3d 85da 9a3d 6b26 b53d
000001b0: c538 debb 1cf4 4e3d ce86 473d 11fc c53b
000001c0: 964b 143d 90d9 193d 492c 15bd 6c22 f2bd
000001d0: 7c4b 1fbe 960e 343d 6c46 82bd a474 2bbd
000001e0: 0083 b43a 2bd0 b43d a04d 4b3b 176e ac3d
000001f0: 710a 933d 9004 82bd 984f fcbd 7dfe ddbd
00000200: fc1f e3bb ecfc 46bd 76ac 08be e600 adbd
00000210: fa3c 213c 4cad fbbc c704 793d 37d8 903d
00000220: c23a 2c3d a653 2a3d 3260 483d af99 d63d
00000230: e8a9 043c 69dc 6ebd 77f2 35bd b0ac 75bc
00000240: 185a 6fbd f7ab 523d 13d3 b43d ad52 a83d
00000250: a81c 3a3c 22b4 bebd 9de0 943c 6c45 c23c
00000260: af15 233d 9444 873c 0834 38bc 9b8f d43d
00000270: 4e4c 333d ef83 cebd c018 d53b b054 abbd
00000280: 8025 b5bd a49c 2abd d808 09be f6e7 8fbd
00000290: c4d7 08be 3a0a e53c 6787 cf3c 168b afbc
000002a0: ce8e 0cbe b8fc 48bc 86b0 2f3d c206 c8bd
000002b0: 54c7 d4bd 20ad 253b 8f97 9c3d dd3a 9abd
000002c0: 2276 96bd eab5 723d 1de3 a53d 2ad3 463d
000002d0: 62e4 14bd 9b83 b1bc 6b2e 4e3d 42f8 783c
000002e0: 0c2f 9cbc a946 093c 6058 8ebd fe4c a2bd
000002f0: 2a8d 7c3d 50c5 86bb 14de 8dbc a8e4 25bc
00000300: f9c7 a13d c3cd a43d cb17 bcbd 0e57 85bd
00000310: 1a84 473d 54c5 a83c a36b 113c 8267 5f3d
00000320: 9622 c3bd 9d98 b63c c59a 47bc 1406 14bc
00000330: 426c afbd 5b32 923d 9c14 45bd eb15 0dbd
00000340: a74e 78bd bf29 943c 2753 283d e497 403c
00000350: 58d1 a83c 9596 49bb 17fa 663c 4461 97bd
00000360: 8d9d 4ebd be16 093d b6ed 96bd e7d8 3d3d
00000370: 9c1c 673d 79fe a13d 05e4 16bd 1ae8 55bd
00000380: ee15 0abd 663a babd e25a 62bd 73a8 c23d
00000390: 07a2 a63d eed4 1f3d fc4c ca3c 1451 c43c
000003a0: 786d 70bc 5006 c4bc cd36 c6bc 333a 04bd
000003b0: bac0 d63c d7d4 46bc 8168 8f3d 0ff8 41bc
000003c0: 9e5a 9e3d 3a97 e3bc 31f0 bf3d 56f9 c63d
000003d0: c05b 013e 81b8 fcbd e30e cdbc a23e 16bd
000003e0: 6b5d ed3d 093b 76bb bbc9 5d3d 6095 6f3b
000003f0: 7ff6 88bd 087f 01bc cacb d4bb 3deb 513d
0.010591231 0.059646927 -0.076831885 0.01914844 0.018854588 -0.08225702 0.018494293 0.020169355
0.06981691 -0.050344087 -0.08450246 -0.03984288 0.009662792 0.032749392 -0.059925757 0.07739789
-0.036502622 0.067602865 -0.0924746 -0.12345982 -0.10960385 -0.099447176 -0.10927934 0.02978794
-0.008974759 -0.12595786 -0.028123252 0.086929776 0.08638207 -0.0875486 -0.095623 0.02295456
0.044221185 -0.0044227466 0.09618647 -0.034632184 -0.06720228 -0.029141769 0.020279871 -0.09767862
-0.06949737 0.035620324 -0.07270101 0.054685403 -0.0014390365 -0.09750078 -0.018036857 0.026050426
-0.036716595 -0.015519381 0.052390195 -0.012666941 -0.0986673 0.08726279 -0.012904043 -0.1281416
-0.07410832 0.020456102 -0.019560285 -0.10802582 -0.024375055 -0.011179307 0.038497373 -0.030073334
-0.06536719 0.046180923 0.015326485 -0.02262975 -0.022116493 0.116582304 0.08910729 0.107811846
-0.16042879 -0.13563089 -0.0038863018 -0.04390755 -0.066035725 -0.08019142 -0.02509499 -0.18953222
-0.19906381 -0.08629918 -0.06214071 -0.03663214 0.056153253 -0.13879827 -0.10464389 -0.14585765
-0.042306807 -0.105253085 0.100237526 -0.07307099 -0.10344793 0.09583091 -0.00790786 0.0722082
0.021706872 0.10358202 -0.028272271 -0.07667653 0.06301845 0.052549385 -0.028388157 0.082669966
0.01833263 0.07006397 0.075612105 0.08845218 -0.00678167 0.05052577 0.048712544 0.0060420115
0.036204897 0.037561 -0.036419187 -0.11822972 -0.15556139 0.043959223 -0.06361088 -0.041859284
0.0013771951 0.088287674 0.003102161 0.084194355 0.07179726 -0.063485265 -0.12319869 -0.108395554
-0.006931303 -0.04858105 -0.13347039 -0.08447437 0.009841198 -0.030722283 0.06079557 0.0707249
0.042048223 0.04158368 0.048919864 0.104785316 0.008097149 -0.05831567 -0.044420686 -0.014994785
-0.05843553 0.05143353 0.08829322 0.08218894 0.011359371 -0.09311701 0.01817351 0.023714744
0.0398156 0.016512193 -0.011242874 0.10378953 0.04377394 -0.10083758 0.0065031946 -0.08365762
-0.08845043 -0.04165329 -0.1338228 -0.07026665 -0.13363558 0.027958978 0.02533312 -0.021428626
-0.1372635 -0.012267284 0.042892955 -0.09766914 -0.10389581 0.0025280192 0.07646095 -0.075307585
-0.07346751 0.059255518 0.08099959 0.048541225 -0.036350615 -0.0216692 0.050337236 0.015195908
-0.019065402 0.008378663 -0.0695045 -0.07924841 0.061658062 -0.004112877 -0.01731781 -0.010125317
0.0789947 0.080470584 -0.09184226 -0.06510745 0.048709966 0.020601906 0.00887576 0.054542072
-0.09528081 0.022289569 -0.012182896 -0.009034652 -0.085655704 0.07138511 -0.048115358 -0.03444473
-0.060621884 0.018086312 0.041094925 0.011754964 0.020607635 -0.003075992 0.014097712 -0.07391599
-0.05044322 0.033468954 -0.073695585 0.046349432 0.05642377 0.07909865 -0.03683855 -0.052223302
-0.03371232 -0.0909317 -0.055262454 0.095047854 0.08136373 0.039021425 0.024694912 0.023964442
-0.014674537 -0.023928791 -0.024196053 -0.032282066 0.026214946 -0.012135706 0.070023544 -0.011838927
0.077321276 -0.027782071 0.09371985 0.09715526 0.12632656 -0.12339879 -0.025031513 -0.036680825
0.11590084 -0.0037571809 0.054147463 0.003655754 -0.066876404 -0.007903822 -0.00649402 0.05124973

conv_block_2.2.bias f4 [10]
00000000: 9e09 98bc c716 0cbe 30a6 04bd 08d1 dbbc
00000010: 6a4c 48bd 60e9 c7bd 580d 6b3d b336 65bd
00000020: 5384 d6bd 0de6 e1bc
-0.018559273 -0.13680564 -0.03238505 -0.026833072 -0.048901 -0.097613096 0.057385772 -0.05596037
-0.104744576 -0.027575517

classifier.1.weight f4 [3, 1690]
00000000: 33dd 10bd 0d51 8dbd 72ba 9ebd 2530 1cbd
00000010: 7bd8 96bd 0efa 8fbd ae33 06bd 7aff bebd
00000020: a4d9 a8bd 8dd6 9abd 7140 17bd 2646 83bd
00000030: 1a50 80bd 1908 1fbd df76 07bd 2afc 49bd
00000040: 920b 36bd 2524 2ebd 5174 4abd f562 9dbd
00000050: 8f1e 82bd 4af3 25bd 46ca 83bd dbf5 5abd
00000060: 894e 80bd e9e0 1dbd 2fb2 3cbd 39e0 41bd
00000070: 0724 73bd e443 79bd 1282 22bd 9a28 57bd
00000080: 2fa9 67bd 8c9a 62bd 8cf2 94bd c9c2 80bd
00000090: f105 5ebd ce8e 43bd 594a 29bd 38ce 7bbd
000000a0: 6c9e 69bd c420 8dbd 383d 13bd 8d6b 36bd
000000b0: 48da 86bd 1f39 18bd 5c60 1ebd 822d 10bd
000000c0: b4b3 29bd ad45 a2bd 8bcd 64bd 8f51 6cbd
000000d0: 28f4 5fbd c27d 0fbd c612 a3bd 3011 36bd
000000e0: fa67 8dbd 6c45 7cbd ec04 8ebd 2307 9abd
000000f0: 3bc0 94bd d870 93bd 04a0 26bd 074e 79bd
00000100: 0a00 2fbd 68ea 51bd ceb0 85bd 9f80 85bd
00000110: b578 79bd abeb 1cbd 884f cabd 35f8 8ebd
00000120: de8f 62bd 986f 8bbd 092f 59bd 3857 84bd
00000130: 0970 91bd 16d7 9bbd 59e3 9bbd 2ab6 8dbd
00000140: e018 40bd 224b 9abd c2fb 7dbd 2dd4 0abd
00000150: ca23 76bd d37b a5bd 0bfc 84bd cbde 47bd
00000160: 002c 6ebd 04ed 52bd 33fa 2bbd 826b 9ebd
00000170: 7b89 98bd e0be 87bd 7980 86bd 9a29 a6bd
00000180: 4334 3fbd abcc 97bd 33e3 a7bd 351f 4fbd
00000190: d8c3 20bd 2d78 74bd 84a1 85bd aad0 35bd
000001a0: aef2 d5bd 725c 45bd 96b6 5cbd e254 98bd
000001b0: 9e3d 81bd 6d55 8bbd 82f7 71bd afd9 7bbd
000001c0: 17e7 2cbd a9fd 38bd 647c 6dbd 3368 45bd
000001d0: a8f3 5bbd 7f25 51bd d3f6 19bd 53a3 a5bd
000001e0: 8fe7 9fbd 924e 90bd bdb7 83bd 5503 bebd
000001f0: 453d 0fbd c9d2 7cbd c623 14bd 07e6 75bd
00000200: 0452 93bd 0b84 81bd 8c26 a4bd 9d52 26bd
00000210: a149 62bd 0a4f ccbd 9e17 83bd 3dac 73bd
00000220: be66 27bd f799 27bd 43d4 b3bd b2b8 27bd
00000230: 9836 c2bd 024f 8cbd 3e25 5ebd 2b3d 8cbd
00000240: 86a1 7abd d31a 18bd 6285 91bd bcc2 b8bd
00000250: 356d 0ebd 6f2e 9ebd 31b8 b8bd 069e 4bbd
00000260: 19be 89bd 22e1 a1bd eae6 afbd 4f2c 8ebd
00000270: 7b8a ccbd 2b8c c9bd ea73 a6bd 3dea b2bd
00000280: 0867 a3bd c10d 88bd f9d3 81bd d86a 72bd
00000290: ffea 42bd 3c5e 2ebd 9190 2ebd 7a53 88bd
000002a0: 6819 8abd 7a64 2d3d 40b8 083d 76cf 213d
000002b0: ff1b 193d a2ec 123d 5a25 753d e3bd 003d
000002c0: d143 363d e524 023d 6134 903d edb9 4f3d
000002d0: 243d 943d c6f3 1e3d bee6 e93c e66a 813d
000002e0: 439c 363d 3c6e 823d f203 f43c 609b 093d
000002f0: bb54 3b3d c7f1 823d 17fb 723d b91c 1a3d
00000300: d2ae 363d 037b 7d3d 51a8 043d ef9c 3f3d
00000310: 41e6 3b3d 44fa 653d ba93 373d b078 f53c
00000320: 7b49 683d 0edc 293d 5932 023d c8bb 533d
00000330: fdf8 643d 59bc 8f3d c90e 243d 495e 823d
00000340: b601 243d ba4f 113d 537a 803d 0ad9 593d
00000350: bda8 373d 8a7c f53c 0a8c 553d afca 543d
00000360: 1e8d 753d 6e9a 3f3d 9c69 303d df7e 2f3d
00000370: a7df 293d 0156 443d 4eb3 8a3d 7302 903d
00000380: 26d6 453d 18b7 6f3d 749b 5a3d 32de 823d
00000390: 6158 3b3d af9b 853d 9b60 953d f80f 063d
000003a0: 3dae 073d 9e85 1a3d b27c 293d a537 503d
000003b0: f003 0c3d c846 1e3d d287 9b3d 36e2 8b3d
000003c0: c6f2 773d c2a9 043d 9e45 643d 8184 903d
000003d0: 57d3 6f3d 4114 1f3d 5804 3d3d 7ec7 5c3d
000003e0: baf7 5f3d 9da6 463d 59e2 8d3d 9f52 633d
000003f0: 2c32 3c3d 6cc4 7e3d d47f 083d a9f2 193d
-0.035367202 -0.06900225 -0.07750405 -0.03813185 -0.07365509 -0.07030116 -0.03276413 -0.09326072
-0.08244637 -0.075604536 -0.03692669 -0.06409864 -0.06265278 -0.038826082 -0.03307235 -0.049312748
-0.044444628 -0.04251494 -0.049427334 -0.0768489 -0.06353485 -0.04051522 -0.06435065 -0.053457122
-0.062649794 -0.03854457 -0.046068367 -0.047332976 -0.05936053 -0.06085576 -0.039674826 -0.052528955
-0.05655783 -0.05532317 -0.07272825 -0.06287152 -0.054204885 -0.04774361 -0.04133067 -0.061475962
-0.05703585 -0.06891015 -0.035947055 -0.044536162 -0.065846026 -0.03716385 -0.038666114 -0.03519965
-0.041431144 -0.07923446 -0.055860084 -0.057694968 -0.054676205 -0.03503204 -0.07962565 -0.044449985
-0.069045976 -0.061589643 -0.069345325 -0.075208925 -0.072632276 -0.071992576 -0.040679947 -0.06086543
-0.042724647 -0.051248938 -0.065278634 -0.06518673 -0.06090613 -0.038310688 -0.09878451 -0.069809355
-0.055312984 -0.06808394 -0.05302337 -0.06461948 -0.07101447 -0.07609384 -0.076117225 -0.06919511
-0.046898723 -0.07533862 -0.062007673 -0.033893753 -0.060092725 -0.08080258 -0.06493386 -0.048796456
-0.05814743 -0.051495567 -0.041986655 -0.07735349 -0.07448097 -0.066282034 -0.06567473 -0.081134036
-0.0466807 -0.07412084 -0.08197632 -0.05056687 -0.03924927 -0.05968492 -0.06524947 -0.04438845
-0.10446678 -0.048183866 -0.053885065 -0.07438065 -0.06310581 -0.06803403 -0.059073932 -0.061486896
-0.042212572 -0.045163784 -0.057979956 -0.048195075 -0.053699166 -0.05106115 -0.037588906 -0.08087792
-0.07807838 -0.07046236 -0.0643153 -0.09277979 -0.03497054 -0.061724458 -0.03616693 -0.060033824
-0.071933776 -0.06324013 -0.08015165 -0.04060613 -0.055246 -0.09976013 -0.06400989 -0.05949043
-0.040869467 -0.040918317 -0.0878072 -0.040947624 -0.09483069 -0.06851007 -0.054234736 -0.06847604
-0.061189197 -0.037134957 -0.07105519 -0.09021518 -0.034772117 -0.077237 -0.09019507 -0.04971125
-0.067257114 -0.07904269 -0.08588965 -0.06942045 -0.099873506 -0.09841188 -0.081275776 -0.08736084
-0.07978636 -0.06643248 -0.06339259 -0.059183925 -0.04758739 -0.042570338 -0.042618338 -0.06656547
-0.06743127 0.04233215 0.03337884 0.03950449 0.037380215 0.035870202 0.059850074 0.03143109
0.04449827 0.031773467 0.070412405 0.050714422 0.07238224 0.0388067 0.02855241 0.063192174
0.044582617 0.06368682 0.029787038 0.033595443 0.045735102 0.063937716 0.05932149 0.03762505
0.044600315 0.06188489 0.03238708 0.046780523 0.045873884 0.056146875 0.044818617 0.029964775
0.0567107 0.041469626 0.031786297 0.051692754 0.055901516 0.07018346 0.040053163 0.0636564
0.040040694 0.035476424 0.062733315 0.0531855 0.044838656 0.029966611 0.052135505 0.051951107
0.059949033 0.046778135 0.043069467 0.042845603 0.041473057 0.047933582 0.06772481 0.07031717
0.04829993 0.05852422 0.053370908 0.06390037 0.04573858 0.06523835 0.07293817 0.032730073
0.03312515 0.037725084 0.041378684 0.050834317 0.034183443 0.03864172 0.07594265 0.06830256
0.06053426 0.032388456 0.055730455 0.07056523 0.05855116 0.038837675 0.04614672 0.053901188
0.05467961 0.04849874 0.06927938 0.055498715 0.045946285 0.06219904 0.03332503 0.037584934

classifier.1.bias f4 [3]
00000000: b247 3d3d 3d66 5abd 102d c0bc
0.046210952 -0.05332016 -0.023458987
